…
random_seed: 225
iter_size: 1
type: "SGD"
I1113 06:24:16.721158 10024 solver.cpp:81] Creating training net from train_net file: /home/ubuntu/results/bohb/smallcnn/trial200/arm25/network_train.prototxt
I1113 06:24:16.721673 10024 net.cpp:49] Initializing net from parameters: 
state {
  phase: TRAIN
}
layer {
  name: "data"
  type: "Data"
  top: "data"
  top: "label"
  transform_param {
    mean_file: "/mnt/data/cifar10_mean/mean.binaryproto"
  }
  data_param {
    source: "/mnt/data/cifar10_mean/cifar10_eventrain_lmdb"
    batch_size: 256
    backend: LMDB
  }
}
layer {
  name: "conv1"
  type: "Convolution"
  bottom: "data"
  top: "conv1"
  param {
    lr_mult: 1
    decay_mult: 0.0018668231
  }
  param {
    lr_mult: 2
    decay_mult: 0
  }
  convolution_param {
    num_output: 16
    pad: 2
    kernel_size: 5
    stride: 1
    weight_filler {
      type: "gaussian"
      std: 0.02726239
    }
    bias_filler {
      type: "constant"
    }
  }
}
layer {
  name: "relu1"
  type: "ReLU"
  bottom: "conv1"
  top: "conv1"
}
layer {
  name: "pool1"
  type: "Pooling"
  bottom: "conv1"
  top: "pool1"
  pooling_param {
    pool: MAX
    kernel_size: 3
    stride: 2
  }
}
layer {
  name: "conv2"
  type: "Convolution"
  bottom: "pool1"
  top: "conv2"
  param {
    lr_mult: 1
    decay_mult: 0.0018668231
  }
  param {
    lr_mult: 2
    decay_mult: 0
  }
  convolution_param {
    num_output: 32
    pad: 2
    kernel_size: 5
    stride: 1
    weight_filler {
      type: "gaussian"
      std: 0.02726239
    }
    bias_filler {
      type: "constant"
    }
  }
}
layer {
  name: "relu2"
  type: "ReLU"
  bottom: "conv2"
  top: "conv2"
}
layer {
  name: "pool2"
  type: "Pooling"
  bottom: "conv2"
  top: "pool2"
  pooling_param {
    pool: MAX
    kernel_size: 3
    stride: 2
  }
}
layer {
  name: "ip1"
  type: "InnerProduct"
  bottom: "pool2"
  top: "ip1"
  param {
    lr_mult: 1
    decay_mult: 0.025410863
  }
  param {
    lr_mult: 2
    decay_mult: 0
  }
  inner_product_param {
    num_output: 32
    weight_filler {
      type: "gaussian"
      std: 0.33816549
    }
    bias_filler {
      type: "constant"
    }
  }
}
layer {
  name: "ip2"
  type: "InnerProduct"
  bottom: "ip1"
  top: "ip2"
  param {
    lr_mult: 1
    decay_mult: 8.0999718
  }
  param {
    lr_mult: 2
    decay_mult: 0
  }
  inner_product_param {
    num_output: 10
    weight_filler {
      type: "gaussian"
      std: 0.03728433
    }
    bias_filler {
      type: "constant"
    }
  }
}
layer {
  name: "loss"
  type: "SoftmaxWithLoss"
  bottom: "ip2"
  bottom: "label"
  top: "loss"
}
I1113 06:24:16.721743 10024 layer_factory.hpp:77] Creating layer data
I1113 06:24:16.721962 10024 net.cpp:91] Creating Layer data
I1113 06:24:16.721992 10024 net.cpp:399] data -> data
I1113 06:24:16.722028 10024 net.cpp:399] data -> label
I1113 06:24:16.722050 10024 data_transformer.cpp:25] Loading mean file from: /mnt/data/cifar10_mean/mean.binaryproto
I1113 06:24:16.722636 10030 db_lmdb.cpp:38] Opened lmdb /mnt/data/cifar10_mean/cifar10_eventrain_lmdb
I1113 06:24:16.745055 10024 data_layer.cpp:41] output data size: 256,3,32,32
I1113 06:24:16.750989 10024 net.cpp:141] Setting up data
I1113 06:24:16.751015 10024 net.cpp:148] Top shape: 256 3 32 32 (786432)
I1113 06:24:16.751024 10024 net.cpp:148] Top shape: 256 (256)
I1113 06:24:16.751029 10024 net.cpp:156] Memory required for data: 3146752
I1113 06:24:16.751036 10024 layer_factory.hpp:77] Creating layer conv1
I1113 06:24:16.751068 10024 net.cpp:91] Creating Layer conv1
I1113 06:24:16.751076 10024 net.cpp:425] conv1 <- data
I1113 06:24:16.751092 10024 net.cpp:399] conv1 -> conv1
I1113 06:24:16.906359 10024 net.cpp:141] Setting up conv1
I1113 06:24:16.906405 10024 net.cpp:148] Top shape: 256 16 32 32 (4194304)
I1113 06:24:16.906412 10024 net.cpp:156] Memory required for data: 19923968
I1113 06:24:16.906440 10024 layer_factory.hpp:77] Creating layer relu1
I1113 06:24:16.906460 10024 net.cpp:91] Creating Layer relu1
I1113 06:24:16.906466 10024 net.cpp:425] relu1 <- conv1
I1113 06:24:16.906476 10024 net.cpp:386] relu1 -> conv1 (in-place)
I1113 06:24:16.906675 10024 net.cpp:141] Setting up relu1
I1113 06:24:16.906692 10024 net.cpp:148] Top shape: 256 16 32 32 (4194304)
I1113 06:24:16.906697 10024 net.cpp:156] Memory required for data: 36701184
I1113 06:24:16.906703 10024 layer_factory.hpp:77] Creating layer pool1
I1113 06:24:16.906716 10024 net.cpp:91] Creating Layer pool1
I1113 06:24:16.906721 10024 net.cpp:425] pool1 <- conv1
I1113 06:24:16.906730 10024 net.cpp:399] pool1 -> pool1
I1113 06:24:16.906778 10024 net.cpp:141] Setting up pool1
I1113 06:24:16.906788 10024 net.cpp:148] Top shape: 256 16 16 16 (1048576)
I1113 06:24:16.906795 10024 net.cpp:156] Memory required for data: 40895488
I1113 06:24:16.906800 10024 layer_factory.hpp:77] Creating layer conv2
I1113 06:24:16.906817 10024 net.cpp:91] Creating Layer conv2
I1113 06:24:16.906823 10024 net.cpp:425] conv2 <- pool1
I1113 06:24:16.906831 10024 net.cpp:399] conv2 -> conv2
I1113 06:24:16.908535 10024 net.cpp:141] Setting up conv2
I1113 06:24:16.908553 10024 net.cpp:148] Top shape: 256 32 16 16 (2097152)
I1113 06:24:16.908560 10024 net.cpp:156] Memory required for data: 49284096
I1113 06:24:16.908571 10024 layer_factory.hpp:77] Creating layer relu2
I1113 06:24:16.908581 10024 net.cpp:91] Creating Layer relu2
I1113 06:24:16.908593 10024 net.cpp:425] relu2 <- conv2
I1113 06:24:16.908603 10024 net.cpp:386] relu2 -> conv2 (in-place)
I1113 06:24:16.908818 10024 net.cpp:141] Setting up relu2
I1113 06:24:16.908833 10024 net.cpp:148] Top shape: 256 32 16 16 (2097152)
I1113 06:24:16.908838 10024 net.cpp:156] Memory required for data: 57672704
I1113 06:24:16.908845 10024 layer_factory.hpp:77] Creating layer pool2
I1113 06:24:16.908854 10024 net.cpp:91] Creating Layer pool2
I1113 06:24:16.908860 10024 net.cpp:425] pool2 <- conv2
I1113 06:24:16.908869 10024 net.cpp:399] pool2 -> pool2
I1113 06:24:16.908905 10024 net.cpp:141] Setting up pool2
I1113 06:24:16.908916 10024 net.cpp:148] Top shape: 256 32 8 8 (524288)
I1113 06:24:16.908921 10024 net.cpp:156] Memory required for data: 59769856
I1113 06:24:16.908927 10024 layer_factory.hpp:77] Creating layer ip1
I1113 06:24:16.908941 10024 net.cpp:91] Creating Layer ip1
I1113 06:24:16.908947 10024 net.cpp:425] ip1 <- pool2
I1113 06:24:16.908955 10024 net.cpp:399] ip1 -> ip1
I1113 06:24:16.911515 10024 net.cpp:141] Setting up ip1
I1113 06:24:16.911532 10024 net.cpp:148] Top shape: 256 32 (8192)
I1113 06:24:16.911548 10024 net.cpp:156] Memory required for data: 59802624
I1113 06:24:16.911561 10024 layer_factory.hpp:77] Creating layer ip2
I1113 06:24:16.911572 10024 net.cpp:91] Creating Layer ip2
I1113 06:24:16.911578 10024 net.cpp:425] ip2 <- ip1
I1113 06:24:16.911586 10024 net.cpp:399] ip2 -> ip2
I1113 06:24:16.911684 10024 net.cpp:141] Setting up ip2
I1113 06:24:16.911695 10024 net.cpp:148] Top shape: 256 10 (2560)
I1113 06:24:16.911700 10024 net.cpp:156] Memory required for data: 59812864
I1113 06:24:16.911708 10024 layer_factory.hpp:77] Creating layer loss
I1113 06:24:16.911720 10024 net.cpp:91] Creating Layer loss
I1113 06:24:16.911726 10024 net.cpp:425] loss <- ip2
I1113 06:24:16.911733 10024 net.cpp:425] loss <- label
I1113 06:24:16.911741 10024 net.cpp:399] loss -> loss
I1113 06:24:16.911764 10024 layer_factory.hpp:77] Creating layer loss
…
I1113 06:24:16.912089 10024 net.cpp:274] Network initialization done.
I1113 06:24:16.912601 10024 solver.cpp:181] Creating test net (#0) specified by test_net file: /home/ubuntu/results/bohb/smallcnn/trial200/arm25/network_val.prototxt
I1113 06:24:16.912771 10024 net.cpp:49] Initializing net from parameters: 
state {
  phase: TEST
}
layer {
  name: "data"
  type: "Data"
  top: "data"
  top: "label"
  transform_param {
    mean_file: "/mnt/data/cifar10_mean/mean.binaryproto"
  }
  data_param {
    source: "/mnt/data/cifar10_mean/cifar10_evenval_lmdb"
    batch_size: 256
    backend: LMDB
  }
}
layer {
  name: "conv1"
  type: "Convolution"
  bottom: "data"
  top: "conv1"
  param {
    lr_mult: 1
    decay_mult: 0.0018668231
  }
  param {
    lr_mult: 2
    decay_mult: 0
  }
  convolution_param {
    num_output: 16
    pad: 2
    kernel_size: 5
    stride: 1
    weight_filler {
      type: "gaussian"
      std: 0.02726239
    }
    bias_filler {
      type: "constant"
    }
  }
}
layer {
  name: "relu1"
  type: "ReLU"
  bottom: "conv1"
  top: "conv1"
}
layer {
  name: "pool1"
  type: "Pooling"
  bottom: "conv1"
  top: "pool1"
  pooling_param {
    pool: MAX
    kernel_size: 3
    stride: 2
  }
}
layer {
  name: "conv2"
  type: "Convolution"
  bottom: "pool1"
  top: "conv2"
  param {
    lr_mult: 1
    decay_mult: 0.0018668231
  }
  param {
    lr_mult: 2
    decay_mult: 0
  }
  convolution_param {
    num_output: 32
    pad: 2
    kernel_size: 5
    stride: 1
    weight_filler {
      type: "gaussian"
      std: 0.02726239
    }
    bias_filler {
      type: "constant"
    }
  }
}
layer {
  name: "relu2"
  type: "ReLU"
  bottom: "conv2"
  top: "conv2"
}
layer {
  name: "pool2"
  type: "Pooling"
  bottom: "conv2"
  top: "pool2"
  pooling_param {
    pool: MAX
    kernel_size: 3
    stride: 2
  }
}
layer {
  name: "ip1"
  type: "InnerProduct"
  bottom: "pool2"
  top: "ip1"
  param {
    lr_mult: 1
    decay_mult: 0.025410863
  }
  param {
    lr_mult: 2
    decay_mult: 0
  }
  inner_product_param {
    num_output: 32
    weight_filler {
      type: "gaussian"
      std: 0.33816549
    }
    bias_filler {
      type: "constant"
    }
  }
}
layer {
  name: "ip2"
  type: "InnerProduct"
  bottom: "ip1"
  top: "ip2"
  param {
    lr_mult: 1
    decay_mult: 8.0999718
  }
  param {
    lr_mult: 2
    decay_mult: 0
  }
  inner_product_param {
    num_output: 10
    weight_filler {
      type: "gaussian"
      std: 0.03728433
    }
    bias_filler {
      type: "constant"
    }
  }
}
layer {
  name: "loss"
  type: "SoftmaxWithLoss"
  bottom: "ip2"
  bottom: "label"
  top: "loss"
}
layer {
  name: "acc"
  type: "Accuracy"
  bottom: "ip2"
  bottom: "label"
  top: "acc"
}
I1113 06:24:16.912856 10024 layer_factory.hpp:77] Creating layer data
I1113 06:24:16.913065 10024 net.cpp:91] Creating Layer data
I1113 06:24:16.913117 10024 net.cpp:399] data -> data
I1113 06:24:16.913133 10024 net.cpp:399] data -> label
I1113 06:24:16.913144 10024 data_transformer.cpp:25] Loading mean file from: /mnt/data/cifar10_mean/mean.binaryproto
I1113 06:24:16.913813 10032 db_lmdb.cpp:38] Opened lmdb /mnt/data/cifar10_mean/cifar10_evenval_lmdb
I1113 06:24:16.913944 10024 data_layer.cpp:41] output data size: 256,3,32,32
I1113 06:24:16.919620 10024 net.cpp:141] Setting up data
I1113 06:24:16.919642 10024 net.cpp:148] Top shape: 256 3 32 32 (786432)
I1113 06:24:16.919651 10024 net.cpp:148] Top shape: 256 (256)
I1113 06:24:16.919656 10024 net.cpp:156] Memory required for data: 3146752
I1113 06:24:16.919662 10024 layer_factory.hpp:77] Creating layer label_data_1_split
I1113 06:24:16.919682 10024 net.cpp:91] Creating Layer label_data_1_split
I1113 06:24:16.919689 10024 net.cpp:425] label_data_1_split <- label
I1113 06:24:16.919698 10024 net.cpp:399] label_data_1_split -> label_data_1_split_0
I1113 06:24:16.919709 10024 net.cpp:399] label_data_1_split -> label_data_1_split_1
I1113 06:24:16.919787 10024 net.cpp:141] Setting up label_data_1_split
I1113 06:24:16.919801 10024 net.cpp:148] Top shape: 256 (256)
I1113 06:24:16.919807 10024 net.cpp:148] Top shape: 256 (256)
I1113 06:24:16.919813 10024 net.cpp:156] Memory required for data: 3148800
I1113 06:24:16.919819 10024 layer_factory.hpp:77] Creating layer conv1
I1113 06:24:16.919832 10024 net.cpp:91] Creating Layer conv1
I1113 06:24:16.919838 10024 net.cpp:425] conv1 <- data
I1113 06:24:16.919891 10024 net.cpp:399] conv1 -> conv1
I1113 06:24:16.921754 10024 net.cpp:141] Setting up conv1
I1113 06:24:16.921772 10024 net.cpp:148] Top shape: 256 16 32 32 (4194304)
I1113 06:24:16.921778 10024 net.cpp:156] Memory required for data: 19926016
I1113 06:24:16.921792 10024 layer_factory.hpp:77] Creating layer relu1
I1113 06:24:16.921802 10024 net.cpp:91] Creating Layer relu1
I1113 06:24:16.921808 10024 net.cpp:425] relu1 <- conv1
I1113 06:24:16.921821 10024 net.cpp:386] relu1 -> conv1 (in-place)
I1113 06:24:16.922075 10024 net.cpp:141] Setting up relu1
I1113 06:24:16.922089 10024 net.cpp:148] Top shape: 256 16 32 32 (4194304)
I1113 06:24:16.922096 10024 net.cpp:156] Memory required for data: 36703232
I1113 06:24:16.922101 10024 layer_factory.hpp:77] Creating layer pool1
I1113 06:24:16.922118 10024 net.cpp:91] Creating Layer pool1
I1113 06:24:16.922127 10024 net.cpp:425] pool1 <- conv1
I1113 06:24:16.922134 10024 net.cpp:399] pool1 -> pool1
I1113 06:24:16.922188 10024 net.cpp:141] Setting up pool1
I1113 06:24:16.922199 10024 net.cpp:148] Top shape: 256 16 16 16 (1048576)
I1113 06:24:16.922204 10024 net.cpp:156] Memory required for data: 40897536
I1113 06:24:16.922210 10024 layer_factory.hpp:77] Creating layer conv2
I1113 06:24:16.922224 10024 net.cpp:91] Creating Layer conv2
I1113 06:24:16.922231 10024 net.cpp:425] conv2 <- pool1
I1113 06:24:16.922240 10024 net.cpp:399] conv2 -> conv2
I1113 06:24:16.923439 10024 net.cpp:141] Setting up conv2
I1113 06:24:16.923456 10024 net.cpp:148] Top shape: 256 32 16 16 (2097152)
I1113 06:24:16.923462 10024 net.cpp:156] Memory required for data: 49286144
I1113 06:24:16.923475 10024 layer_factory.hpp:77] Creating layer relu2
I1113 06:24:16.923487 10024 net.cpp:91] Creating Layer relu2
I1113 06:24:16.923493 10024 net.cpp:425] relu2 <- conv2
I1113 06:24:16.923503 10024 net.cpp:386] relu2 -> conv2 (in-place)
I1113 06:24:16.923758 10024 net.cpp:141] Setting up relu2
I1113 06:24:16.923779 10024 net.cpp:148] Top shape: 256 32 16 16 (2097152)
I1113 06:24:16.923785 10024 net.cpp:156] Memory required for data: 57674752
I1113 06:24:16.923791 10024 layer_factory.hpp:77] Creating layer pool2
I1113 06:24:16.923800 10024 net.cpp:91] Creating Layer pool2
I1113 06:24:16.923805 10024 net.cpp:425] pool2 <- conv2
I1113 06:24:16.923813 10024 net.cpp:399] pool2 -> pool2
I1113 06:24:16.923859 10024 net.cpp:141] Setting up pool2
I1113 06:24:16.923871 10024 net.cpp:148] Top shape: 256 32 8 8 (524288)
I1113 06:24:16.923877 10024 net.cpp:156] Memory required for data: 59771904
I1113 06:24:16.923882 10024 layer_factory.hpp:77] Creating layer ip1
I1113 06:24:16.923897 10024 net.cpp:91] Creating Layer ip1
I1113 06:24:16.923902 10024 net.cpp:425] ip1 <- pool2
I1113 06:24:16.923910 10024 net.cpp:399] ip1 -> ip1
I1113 06:24:16.925997 10024 net.cpp:141] Setting up ip1
I1113 06:24:16.926010 10024 net.cpp:148] Top shape: 256 32 (8192)
I1113 06:24:16.926017 10024 net.cpp:156] Memory required for data: 59804672
I1113 06:24:16.926028 10024 layer_factory.hpp:77] Creating layer ip2
I1113 06:24:16.926040 10024 net.cpp:91] Creating Layer ip2
I1113 06:24:16.926046 10024 net.cpp:425] ip2 <- ip1
I1113 06:24:16.926054 10024 net.cpp:399] ip2 -> ip2
I1113 06:24:16.926162 10024 net.cpp:141] Setting up ip2
I1113 06:24:16.926173 10024 net.cpp:148] Top shape: 256 10 (2560)
I1113 06:24:16.926178 10024 net.cpp:156] Memory required for data: 59814912
I1113 06:24:16.926187 10024 layer_factory.hpp:77] Creating layer ip2_ip2_0_split
I1113 06:24:16.926195 10024 net.cpp:91] Creating Layer ip2_ip2_0_split
I1113 06:24:16.926201 10024 net.cpp:425] ip2_ip2_0_split <- ip2
I1113 06:24:16.926209 10024 net.cpp:399] ip2_ip2_0_split -> ip2_ip2_0_split_0
I1113 06:24:16.926220 10024 net.cpp:399] ip2_ip2_0_split -> ip2_ip2_0_split_1
I1113 06:24:16.926255 10024 net.cpp:141] Setting up ip2_ip2_0_split
I1113 06:24:16.926265 10024 net.cpp:148] Top shape: 256 10 (2560)
I1113 06:24:16.926271 10024 net.cpp:148] Top shape: 256 10 (2560)
I1113 06:24:16.926277 10024 net.cpp:156] Memory required for data: 59835392
I1113 06:24:16.926283 10024 layer_factory.hpp:77] Creating layer loss
I1113 06:24:16.926291 10024 net.cpp:91] Creating Layer loss
I1113 06:24:16.926296 10024 net.cpp:425] loss <- ip2_ip2_0_split_0
I1113 06:24:16.926303 10024 net.cpp:425] loss <- label_data_1_split_0
I1113 06:24:16.926314 10024 net.cpp:399] loss -> loss
…
random_seed: 226
iter_size: 1
type: "SGD"
I1113 06:24:21.757822 10037 solver.cpp:81] Creating training net from train_net file: /home/ubuntu/results/bohb/smallcnn/trial200/arm26/network_train.prototxt
I1113 06:24:21.758193 10037 net.cpp:49] Initializing net from parameters: 
state {
  phase: TRAIN
}
layer {
  name: "data"
  type: "Data"
  top: "data"
  top: "label"
  transform_param {
    mean_file: "/mnt/data/cifar10_mean/mean.binaryproto"
  }
  data_param {
    source: "/mnt/data/cifar10_mean/cifar10_eventrain_lmdb"
    batch_size: 128
    backend: LMDB
  }
}
layer {
  name: "conv1"
  type: "Convolution"
  bottom: "data"
  top: "conv1"
  param {
    lr_mult: 1
    decay_mult: 0.011173606
  }
  param {
    lr_mult: 2
    decay_mult: 0
  }
  convolution_param {
    num_output: 48
    pad: 2
    kernel_size: 5
    stride: 1
    weight_filler {
      type: "gaussian"
      std: 0.024297548
    }
    bias_filler {
      type: "constant"
    }
  }
}
layer {
  name: "relu1"
  type: "ReLU"
  bottom: "conv1"
  top: "conv1"
}
layer {
  name: "pool1"
  type: "Pooling"
  bottom: "conv1"
  top: "pool1"
  pooling_param {
    pool: MAX
    kernel_size: 3
    stride: 2
  }
}
layer {
  name: "conv2"
  type: "Convolution"
  bottom: "pool1"
  top: "conv2"
  param {
    lr_mult: 1
    decay_mult: 0.011173606
  }
  param {
    lr_mult: 2
    decay_mult: 0
  }
  convolution_param {
    num_output: 96
    pad: 2
    kernel_size: 5
    stride: 1
    weight_filler {
      type: "gaussian"
      std: 0.024297548
    }
    bias_filler {
      type: "constant"
    }
  }
}
layer {
  name: "relu2"
  type: "ReLU"
  bottom: "conv2"
  top: "conv2"
}
layer {
  name: "pool2"
  type: "Pooling"
  bottom: "conv2"
  top: "pool2"
  pooling_param {
    pool: MAX
    kernel_size: 3
    stride: 2
  }
}
layer {
  name: "ip1"
  type: "InnerProduct"
  bottom: "pool2"
  top: "ip1"
  param {
    lr_mult: 1
    decay_mult: 0.023358038
  }
  param {
    lr_mult: 2
    decay_mult: 0
  }
  inner_product_param {
    num_output: 96
    weight_filler {
      type: "gaussian"
      std: 0.0016370785
    }
    bias_filler {
      type: "constant"
    }
  }
}
layer {
  name: "ip2"
  type: "InnerProduct"
  bottom: "ip1"
  top: "ip2"
  param {
    lr_mult: 1
    decay_mult: 0.74714029
  }
  param {
    lr_mult: 2
    decay_mult: 0
  }
  inner_product_param {
    num_output: 10
    weight_filler {
      type: "gaussian"
      std: 0.0010555302
    }
    bias_filler {
      type: "constant"
    }
  }
}
layer {
  name: "loss"
  type: "SoftmaxWithLoss"
  bottom: "ip2"
  bottom: "label"
  top: "loss"
}
I1113 06:24:21.758242 10037 layer_factory.hpp:77] Creating layer data
I1113 06:24:21.758348 10037 net.cpp:91] Creating Layer data
I1113 06:24:21.758361 10037 net.cpp:399] data -> data
I1113 06:24:21.758376 10037 net.cpp:399] data -> label
I1113 06:24:21.758388 10037 data_transformer.cpp:25] Loading mean file from: /mnt/data/cifar10_mean/mean.binaryproto
I1113 06:24:21.759394 10038 db_lmdb.cpp:38] Opened lmdb /mnt/data/cifar10_mean/cifar10_eventrain_lmdb
I1113 06:24:21.759490 10037 data_layer.cpp:41] output data size: 128,3,32,32
I1113 06:24:21.762583 10037 net.cpp:141] Setting up data
I1113 06:24:21.762601 10037 net.cpp:148] Top shape: 128 3 32 32 (393216)
I1113 06:24:21.762609 10037 net.cpp:148] Top shape: 128 (128)
I1113 06:24:21.762614 10037 net.cpp:156] Memory required for data: 1573376
I1113 06:24:21.762621 10037 layer_factory.hpp:77] Creating layer conv1
I1113 06:24:21.762637 10037 net.cpp:91] Creating Layer conv1
I1113 06:24:21.762643 10037 net.cpp:425] conv1 <- data
I1113 06:24:21.762652 10037 net.cpp:399] conv1 -> conv1
I1113 06:24:21.765025 10037 net.cpp:141] Setting up conv1
I1113 06:24:21.765043 10037 net.cpp:148] Top shape: 128 48 32 32 (6291456)
I1113 06:24:21.765049 10037 net.cpp:156] Memory required for data: 26739200
I1113 06:24:21.765071 10037 layer_factory.hpp:77] Creating layer relu1
I1113 06:24:21.765082 10037 net.cpp:91] Creating Layer relu1
I1113 06:24:21.765089 10037 net.cpp:425] relu1 <- conv1
I1113 06:24:21.765096 10037 net.cpp:386] relu1 -> conv1 (in-place)
I1113 06:24:21.765280 10037 net.cpp:141] Setting up relu1
I1113 06:24:21.765293 10037 net.cpp:148] Top shape: 128 48 32 32 (6291456)
I1113 06:24:21.765300 10037 net.cpp:156] Memory required for data: 51905024
I1113 06:24:21.765305 10037 layer_factory.hpp:77] Creating layer pool1
I1113 06:24:21.765314 10037 net.cpp:91] Creating Layer pool1
I1113 06:24:21.765321 10037 net.cpp:425] pool1 <- conv1
I1113 06:24:21.765327 10037 net.cpp:399] pool1 -> pool1
I1113 06:24:21.765369 10037 net.cpp:141] Setting up pool1
I1113 06:24:21.765379 10037 net.cpp:148] Top shape: 128 48 16 16 (1572864)
I1113 06:24:21.765384 10037 net.cpp:156] Memory required for data: 58196480
I1113 06:24:21.765391 10037 layer_factory.hpp:77] Creating layer conv2
I1113 06:24:21.765403 10037 net.cpp:91] Creating Layer conv2
I1113 06:24:21.765409 10037 net.cpp:425] conv2 <- pool1
I1113 06:24:21.765417 10037 net.cpp:399] conv2 -> conv2
I1113 06:24:21.770252 10037 net.cpp:141] Setting up conv2
I1113 06:24:21.770278 10037 net.cpp:148] Top shape: 128 96 16 16 (3145728)
I1113 06:24:21.770285 10037 net.cpp:156] Memory required for data: 70779392
I1113 06:24:21.770298 10037 layer_factory.hpp:77] Creating layer relu2
I1113 06:24:21.770308 10037 net.cpp:91] Creating Layer relu2
I1113 06:24:21.770313 10037 net.cpp:425] relu2 <- conv2
I1113 06:24:21.770321 10037 net.cpp:386] relu2 -> conv2 (in-place)
I1113 06:24:21.770545 10037 net.cpp:141] Setting up relu2
I1113 06:24:21.770560 10037 net.cpp:148] Top shape: 128 96 16 16 (3145728)
I1113 06:24:21.770566 10037 net.cpp:156] Memory required for data: 83362304
I1113 06:24:21.770573 10037 layer_factory.hpp:77] Creating layer pool2
I1113 06:24:21.770582 10037 net.cpp:91] Creating Layer pool2
I1113 06:24:21.770587 10037 net.cpp:425] pool2 <- conv2
I1113 06:24:21.770596 10037 net.cpp:399] pool2 -> pool2
I1113 06:24:21.770634 10037 net.cpp:141] Setting up pool2
I1113 06:24:21.770644 10037 net.cpp:148] Top shape: 128 96 8 8 (786432)
I1113 06:24:21.770650 10037 net.cpp:156] Memory required for data: 86508032
I1113 06:24:21.770655 10037 layer_factory.hpp:77] Creating layer ip1
I1113 06:24:21.770666 10037 net.cpp:91] Creating Layer ip1
I1113 06:24:21.770673 10037 net.cpp:425] ip1 <- pool2
I1113 06:24:21.770680 10037 net.cpp:399] ip1 -> ip1
I1113 06:24:21.789382 10037 net.cpp:141] Setting up ip1
I1113 06:24:21.789400 10037 net.cpp:148] Top shape: 128 96 (12288)
I1113 06:24:21.789407 10037 net.cpp:156] Memory required for data: 86557184
I1113 06:24:21.789418 10037 layer_factory.hpp:77] Creating layer ip2
I1113 06:24:21.789429 10037 net.cpp:91] Creating Layer ip2
I1113 06:24:21.789436 10037 net.cpp:425] ip2 <- ip1
I1113 06:24:21.789444 10037 net.cpp:399] ip2 -> ip2
I1113 06:24:21.789566 10037 net.cpp:141] Setting up ip2
I1113 06:24:21.789577 10037 net.cpp:148] Top shape: 128 10 (1280)
I1113 06:24:21.789582 10037 net.cpp:156] Memory required for data: 86562304
I1113 06:24:21.789590 10037 layer_factory.hpp:77] Creating layer loss
I1113 06:24:21.789599 10037 net.cpp:91] Creating Layer loss
I1113 06:24:21.789605 10037 net.cpp:425] loss <- ip2
I1113 06:24:21.789614 10037 net.cpp:425] loss <- label
I1113 06:24:21.789623 10037 net.cpp:399] loss -> loss
I1113 06:24:21.789634 10037 layer_factory.hpp:77] Creating layer loss
…
I1113 06:24:21.789961 10037 net.cpp:274] Network initialization done.
I1113 06:24:21.790438 10037 solver.cpp:181] Creating test net (#0) specified by test_net file: /home/ubuntu/results/bohb/smallcnn/trial200/arm26/network_val.prototxt
I1113 06:24:21.790601 10037 net.cpp:49] Initializing net from parameters: 
state {
  phase: TEST
}
layer {
  name: "data"
  type: "Data"
  top: "data"
  top: "label"
  transform_param {
    mean_file: "/mnt/data/cifar10_mean/mean.binaryproto"
  }
  data_param {
    source: "/mnt/data/cifar10_mean/cifar10_evenval_lmdb"
    batch_size: 128
    backend: LMDB
  }
}
layer {
  name: "conv1"
  type: "Convolution"
  bottom: "data"
  top: "conv1"
  param {
    lr_mult: 1
    decay_mult: 0.011173606
  }
  param {
    lr_mult: 2
    decay_mult: 0
  }
  convolution_param {
    num_output: 48
    pad: 2
    kernel_size: 5
    stride: 1
    weight_filler {
      type: "gaussian"
      std: 0.024297548
    }
    bias_filler {
      type: "constant"
    }
  }
}
layer {
  name: "relu1"
  type: "ReLU"
  bottom: "conv1"
  top: "conv1"
}
layer {
  name: "pool1"
  type: "Pooling"
  bottom: "conv1"
  top: "pool1"
  pooling_param {
    pool: MAX
    kernel_size: 3
    stride: 2
  }
}
layer {
  name: "conv2"
  type: "Convolution"
  bottom: "pool1"
  top: "conv2"
  param {
    lr_mult: 1
    decay_mult: 0.011173606
  }
  param {
    lr_mult: 2
    decay_mult: 0
  }
  convolution_param {
    num_output: 96
    pad: 2
    kernel_size: 5
    stride: 1
    weight_filler {
      type: "gaussian"
      std: 0.024297548
    }
    bias_filler {
      type: "constant"
    }
  }
}
layer {
  name: "relu2"
  type: "ReLU"
  bottom: "conv2"
  top: "conv2"
}
layer {
  name: "pool2"
  type: "Pooling"
  bottom: "conv2"
  top: "pool2"
  pooling_param {
    pool: MAX
    kernel_size: 3
    stride: 2
  }
}
layer {
  name: "ip1"
  type: "InnerProduct"
  bottom: "pool2"
  top: "ip1"
  param {
    lr_mult: 1
    decay_mult: 0.023358038
  }
  param {
    lr_mult: 2
    decay_mult: 0
  }
  inner_product_param {
    num_output: 96
    weight_filler {
      type: "gaussian"
      std: 0.0016370785
    }
    bias_filler {
      type: "constant"
    }
  }
}
layer {
  name: "ip2"
  type: "InnerProduct"
  bottom: "ip1"
  top: "ip2"
  param {
    lr_mult: 1
    decay_mult: 0.74714029
  }
  param {
    lr_mult: 2
    decay_mult: 0
  }
  inner_product_param {
    num_output: 10
    weight_filler {
      type: "gaussian"
      std: 0.0010555302
    }
    bias_filler {
      type: "constant"
    }
  }
}
layer {
  name: "loss"
  type: "SoftmaxWithLoss"
  bottom: "ip2"
  bottom: "label"
  top: "loss"
}
layer {
  name: "acc"
  type: "Accuracy"
  bottom: "ip2"
  bottom: "label"
  top: "acc"
}
I1113 06:24:21.790673 10037 layer_factory.hpp:77] Creating layer data
I1113 06:24:21.790783 10037 net.cpp:91] Creating Layer data
I1113 06:24:21.790796 10037 net.cpp:399] data -> data
I1113 06:24:21.790807 10037 net.cpp:399] data -> label
I1113 06:24:21.790817 10037 data_transformer.cpp:25] Loading mean file from: /mnt/data/cifar10_mean/mean.binaryproto
I1113 06:24:21.791424 10040 db_lmdb.cpp:38] Opened lmdb /mnt/data/cifar10_mean/cifar10_evenval_lmdb
I1113 06:24:21.791538 10037 data_layer.cpp:41] output data size: 128,3,32,32
I1113 06:24:21.794663 10037 net.cpp:141] Setting up data
I1113 06:24:21.794682 10037 net.cpp:148] Top shape: 128 3 32 32 (393216)
I1113 06:24:21.794688 10037 net.cpp:148] Top shape: 128 (128)
I1113 06:24:21.794693 10037 net.cpp:156] Memory required for data: 1573376
I1113 06:24:21.794700 10037 layer_factory.hpp:77] Creating layer label_data_1_split
I1113 06:24:21.794710 10037 net.cpp:91] Creating Layer label_data_1_split
I1113 06:24:21.794723 10037 net.cpp:425] label_data_1_split <- label
I1113 06:24:21.794731 10037 net.cpp:399] label_data_1_split -> label_data_1_split_0
I1113 06:24:21.794741 10037 net.cpp:399] label_data_1_split -> label_data_1_split_1
I1113 06:24:21.794780 10037 net.cpp:141] Setting up label_data_1_split
I1113 06:24:21.794790 10037 net.cpp:148] Top shape: 128 (128)
I1113 06:24:21.794797 10037 net.cpp:148] Top shape: 128 (128)
I1113 06:24:21.794802 10037 net.cpp:156] Memory required for data: 1574400
I1113 06:24:21.794807 10037 layer_factory.hpp:77] Creating layer conv1
I1113 06:24:21.794821 10037 net.cpp:91] Creating Layer conv1
I1113 06:24:21.794826 10037 net.cpp:425] conv1 <- data
I1113 06:24:21.794836 10037 net.cpp:399] conv1 -> conv1
I1113 06:24:21.795943 10037 net.cpp:141] Setting up conv1
I1113 06:24:21.795960 10037 net.cpp:148] Top shape: 128 48 32 32 (6291456)
I1113 06:24:21.795966 10037 net.cpp:156] Memory required for data: 26740224
I1113 06:24:21.795979 10037 layer_factory.hpp:77] Creating layer relu1
I1113 06:24:21.795989 10037 net.cpp:91] Creating Layer relu1
I1113 06:24:21.795995 10037 net.cpp:425] relu1 <- conv1
I1113 06:24:21.796002 10037 net.cpp:386] relu1 -> conv1 (in-place)
I1113 06:24:21.796224 10037 net.cpp:141] Setting up relu1
I1113 06:24:21.796239 10037 net.cpp:148] Top shape: 128 48 32 32 (6291456)
I1113 06:24:21.796245 10037 net.cpp:156] Memory required for data: 51906048
I1113 06:24:21.796252 10037 layer_factory.hpp:77] Creating layer pool1
I1113 06:24:21.796262 10037 net.cpp:91] Creating Layer pool1
I1113 06:24:21.796267 10037 net.cpp:425] pool1 <- conv1
I1113 06:24:21.796277 10037 net.cpp:399] pool1 -> pool1
I1113 06:24:21.796319 10037 net.cpp:141] Setting up pool1
I1113 06:24:21.796329 10037 net.cpp:148] Top shape: 128 48 16 16 (1572864)
I1113 06:24:21.796334 10037 net.cpp:156] Memory required for data: 58197504
I1113 06:24:21.796339 10037 layer_factory.hpp:77] Creating layer conv2
I1113 06:24:21.796352 10037 net.cpp:91] Creating Layer conv2
I1113 06:24:21.796357 10037 net.cpp:425] conv2 <- pool1
I1113 06:24:21.796367 10037 net.cpp:399] conv2 -> conv2
I1113 06:24:21.800776 10037 net.cpp:141] Setting up conv2
I1113 06:24:21.800797 10037 net.cpp:148] Top shape: 128 96 16 16 (3145728)
I1113 06:24:21.800803 10037 net.cpp:156] Memory required for data: 70780416
I1113 06:24:21.800817 10037 layer_factory.hpp:77] Creating layer relu2
I1113 06:24:21.800827 10037 net.cpp:91] Creating Layer relu2
I1113 06:24:21.800832 10037 net.cpp:425] relu2 <- conv2
I1113 06:24:21.800839 10037 net.cpp:386] relu2 -> conv2 (in-place)
I1113 06:24:21.801064 10037 net.cpp:141] Setting up relu2
I1113 06:24:21.801079 10037 net.cpp:148] Top shape: 128 96 16 16 (3145728)
I1113 06:24:21.801084 10037 net.cpp:156] Memory required for data: 83363328
I1113 06:24:21.801090 10037 layer_factory.hpp:77] Creating layer pool2
I1113 06:24:21.801100 10037 net.cpp:91] Creating Layer pool2
I1113 06:24:21.801105 10037 net.cpp:425] pool2 <- conv2
I1113 06:24:21.801113 10037 net.cpp:399] pool2 -> pool2
I1113 06:24:21.801153 10037 net.cpp:141] Setting up pool2
I1113 06:24:21.801164 10037 net.cpp:148] Top shape: 128 96 8 8 (786432)
I1113 06:24:21.801169 10037 net.cpp:156] Memory required for data: 86509056
I1113 06:24:21.801175 10037 layer_factory.hpp:77] Creating layer ip1
I1113 06:24:21.801187 10037 net.cpp:91] Creating Layer ip1
I1113 06:24:21.801192 10037 net.cpp:425] ip1 <- pool2
I1113 06:24:21.801200 10037 net.cpp:399] ip1 -> ip1
I1113 06:24:21.819866 10037 net.cpp:141] Setting up ip1
I1113 06:24:21.819885 10037 net.cpp:148] Top shape: 128 96 (12288)
I1113 06:24:21.819890 10037 net.cpp:156] Memory required for data: 86558208
I1113 06:24:21.819902 10037 layer_factory.hpp:77] Creating layer ip2
I1113 06:24:21.819912 10037 net.cpp:91] Creating Layer ip2
I1113 06:24:21.819919 10037 net.cpp:425] ip2 <- ip1
I1113 06:24:21.819927 10037 net.cpp:399] ip2 -> ip2
I1113 06:24:21.820049 10037 net.cpp:141] Setting up ip2
I1113 06:24:21.820060 10037 net.cpp:148] Top shape: 128 10 (1280)
I1113 06:24:21.820065 10037 net.cpp:156] Memory required for data: 86563328
I1113 06:24:21.820080 10037 layer_factory.hpp:77] Creating layer ip2_ip2_0_split
I1113 06:24:21.820088 10037 net.cpp:91] Creating Layer ip2_ip2_0_split
I1113 06:24:21.820094 10037 net.cpp:425] ip2_ip2_0_split <- ip2
I1113 06:24:21.820102 10037 net.cpp:399] ip2_ip2_0_split -> ip2_ip2_0_split_0
I1113 06:24:21.820111 10037 net.cpp:399] ip2_ip2_0_split -> ip2_ip2_0_split_1
I1113 06:24:21.820143 10037 net.cpp:141] Setting up ip2_ip2_0_split
I1113 06:24:21.820153 10037 net.cpp:148] Top shape: 128 10 (1280)
I1113 06:24:21.820159 10037 net.cpp:148] Top shape: 128 10 (1280)
I1113 06:24:21.820164 10037 net.cpp:156] Memory required for data: 86573568
I1113 06:24:21.820170 10037 layer_factory.hpp:77] Creating layer loss
I1113 06:24:21.820178 10037 net.cpp:91] Creating Layer loss
I1113 06:24:21.820183 10037 net.cpp:425] loss <- ip2_ip2_0_split_0
I1113 06:24:21.820189 10037 net.cpp:425] loss <- label_data_1_split_0
I1113 06:24:21.820197 10037 net.cpp:399] loss -> loss
…
random_seed: 227
iter_size: 1
type: "SGD"
I1113 06:24:38.060429 10046 solver.cpp:81] Creating training net from train_net file: /home/ubuntu/results/bohb/smallcnn/trial200/arm27/network_train.prototxt
I1113 06:24:38.060940 10046 net.cpp:49] Initializing net from parameters: 
state {
  phase: TRAIN
}
layer {
  name: "data"
  type: "Data"
  top: "data"
  top: "label"
  transform_param {
    mean_file: "/mnt/data/cifar10_mean/mean.binaryproto"
  }
  data_param {
    source: "/mnt/data/cifar10_mean/cifar10_eventrain_lmdb"
    batch_size: 64
    backend: LMDB
  }
}
layer {
  name: "conv1"
  type: "Convolution"
  bottom: "data"
  top: "conv1"
  param {
    lr_mult: 1
    decay_mult: 0.00096221949
  }
  param {
    lr_mult: 2
    decay_mult: 0
  }
  convolution_param {
    num_output: 48
    pad: 2
    kernel_size: 5
    stride: 1
    weight_filler {
      type: "gaussian"
      std: 0.0035085571
    }
    bias_filler {
      type: "constant"
    }
  }
}
layer {
  name: "relu1"
  type: "ReLU"
  bottom: "conv1"
  top: "conv1"
}
layer {
  name: "pool1"
  type: "Pooling"
  bottom: "conv1"
  top: "pool1"
  pooling_param {
    pool: MAX
    kernel_size: 3
    stride: 2
  }
}
layer {
  name: "conv2"
  type: "Convolution"
  bottom: "pool1"
  top: "conv2"
  param {
    lr_mult: 1
    decay_mult: 0.00096221949
  }
  param {
    lr_mult: 2
    decay_mult: 0
  }
  convolution_param {
    num_output: 48
    pad: 2
    kernel_size: 5
    stride: 1
    weight_filler {
      type: "gaussian"
      std: 0.0035085571
    }
    bias_filler {
      type: "constant"
    }
  }
}
layer {
  name: "relu2"
  type: "ReLU"
  bottom: "conv2"
  top: "conv2"
}
layer {
  name: "pool2"
  type: "Pooling"
  bottom: "conv2"
  top: "pool2"
  pooling_param {
    pool: MAX
    kernel_size: 3
    stride: 2
  }
}
layer {
  name: "conv3"
  type: "Convolution"
  bottom: "pool2"
  top: "conv3"
  param {
    lr_mult: 1
    decay_mult: 0.00096221949
  }
  param {
    lr_mult: 2
    decay_mult: 0
  }
  convolution_param {
    num_output: 48
    pad: 2
    kernel_size: 5
    stride: 1
    weight_filler {
      type: "gaussian"
      std: 0.0035085571
    }
    bias_filler {
      type: "constant"
    }
  }
}
layer {
  name: "relu3"
  type: "ReLU"
  bottom: "conv3"
  top: "conv3"
}
layer {
  name: "pool3"
  type: "Pooling"
  bottom: "conv3"
  top: "pool3"
  pooling_param {
    pool: MAX
    kernel_size: 3
    stride: 2
  }
}
layer {
  name: "conv4"
  type: "Convolution"
  bottom: "pool3"
  top: "conv4"
  param {
    lr_mult: 1
    decay_mult: 0.00096221949
  }
  param {
    lr_mult: 2
    decay_mult: 0
  }
  convolution_param {
    num_output: 96
    pad: 2
    kernel_size: 5
    stride: 1
    weight_filler {
      type: "gaussian"
      std: 0.0035085571
    }
    bias_filler {
      type: "constant"
    }
  }
}
layer {
  name: "relu4"
  type: "ReLU"
  bottom: "conv4"
  top: "conv4"
}
layer {
  name: "pool4"
  type: "Pooling"
  bottom: "conv4"
  top: "pool4"
  pooling_param {
    pool: MAX
    kernel_size: 3
    stride: 2
  }
}
layer {
  name: "ip1"
  type: "InnerProduct"
  bottom: "pool4"
  top: "ip1"
  param {
    lr_mult: 1
    decay_mult: 0.077520333
  }
  param {
    lr_mult: 2
    decay_mult: 0
  }
  inner_product_param {
    num_output: 96
    weight_filler {
      type: "gaussian"
      std: 0.047519706
    }
    bias_filler {
      type: "constant"
    }
  }
}
layer {
  name: "ip2"
  type: "InnerProduct"
  bottom: "ip1"
  top: "ip2"
  param {
    lr_mult: 1
    decay_mult: 0.067126989
  }
  param {
    lr_mult: 2
    decay_mult: 0
  }
  inner_product_param {
    num_output: 10
    weight_filler {
      type: "gaussian"
      std: 0.1310385
    }
    bias_filler {
      type: "constant"
    }
  }
}
layer {
  name: "loss"
  type: "SoftmaxWithLoss"
  bottom: "ip2"
  bottom: "label"
  top: "loss"
}
I1113 06:24:38.061008 10046 layer_factory.hpp:77] Creating layer data
I1113 06:24:38.061087 10046 net.cpp:91] Creating Layer data
I1113 06:24:38.061100 10046 net.cpp:399] data -> data
I1113 06:24:38.061118 10046 net.cpp:399] data -> label
I1113 06:24:38.061131 10046 data_transformer.cpp:25] Loading mean file from: /mnt/data/cifar10_mean/mean.binaryproto
I1113 06:24:38.062105 10047 db_lmdb.cpp:38] Opened lmdb /mnt/data/cifar10_mean/cifar10_eventrain_lmdb
I1113 06:24:38.062197 10046 data_layer.cpp:41] output data size: 64,3,32,32
I1113 06:24:38.064460 10046 net.cpp:141] Setting up data
I1113 06:24:38.064478 10046 net.cpp:148] Top shape: 64 3 32 32 (196608)
I1113 06:24:38.064489 10046 net.cpp:148] Top shape: 64 (64)
I1113 06:24:38.064496 10046 net.cpp:156] Memory required for data: 786688
I1113 06:24:38.064502 10046 layer_factory.hpp:77] Creating layer conv1
I1113 06:24:38.064517 10046 net.cpp:91] Creating Layer conv1
I1113 06:24:38.064523 10046 net.cpp:425] conv1 <- data
I1113 06:24:38.064532 10046 net.cpp:399] conv1 -> conv1
I1113 06:24:38.065671 10046 net.cpp:141] Setting up conv1
I1113 06:24:38.065688 10046 net.cpp:148] Top shape: 64 48 32 32 (3145728)
I1113 06:24:38.065701 10046 net.cpp:156] Memory required for data: 13369600
I1113 06:24:38.065717 10046 layer_factory.hpp:77] Creating layer relu1
I1113 06:24:38.065727 10046 net.cpp:91] Creating Layer relu1
I1113 06:24:38.065733 10046 net.cpp:425] relu1 <- conv1
I1113 06:24:38.065742 10046 net.cpp:386] relu1 -> conv1 (in-place)
I1113 06:24:38.065919 10046 net.cpp:141] Setting up relu1
I1113 06:24:38.065932 10046 net.cpp:148] Top shape: 64 48 32 32 (3145728)
I1113 06:24:38.065938 10046 net.cpp:156] Memory required for data: 25952512
I1113 06:24:38.065945 10046 layer_factory.hpp:77] Creating layer pool1
I1113 06:24:38.065953 10046 net.cpp:91] Creating Layer pool1
I1113 06:24:38.065959 10046 net.cpp:425] pool1 <- conv1
I1113 06:24:38.065966 10046 net.cpp:399] pool1 -> pool1
I1113 06:24:38.066007 10046 net.cpp:141] Setting up pool1
I1113 06:24:38.066017 10046 net.cpp:148] Top shape: 64 48 16 16 (786432)
I1113 06:24:38.066022 10046 net.cpp:156] Memory required for data: 29098240
I1113 06:24:38.066028 10046 layer_factory.hpp:77] Creating layer conv2
I1113 06:24:38.066040 10046 net.cpp:91] Creating Layer conv2
I1113 06:24:38.066046 10046 net.cpp:425] conv2 <- pool1
I1113 06:24:38.066056 10046 net.cpp:399] conv2 -> conv2
I1113 06:24:38.069025 10046 net.cpp:141] Setting up conv2
I1113 06:24:38.069042 10046 net.cpp:148] Top shape: 64 48 16 16 (786432)
I1113 06:24:38.069048 10046 net.cpp:156] Memory required for data: 32243968
I1113 06:24:38.069061 10046 layer_factory.hpp:77] Creating layer relu2
I1113 06:24:38.069070 10046 net.cpp:91] Creating Layer relu2
I1113 06:24:38.069077 10046 net.cpp:425] relu2 <- conv2
I1113 06:24:38.069083 10046 net.cpp:386] relu2 -> conv2 (in-place)
I1113 06:24:38.069345 10046 net.cpp:141] Setting up relu2
I1113 06:24:38.069360 10046 net.cpp:148] Top shape: 64 48 16 16 (786432)
I1113 06:24:38.069366 10046 net.cpp:156] Memory required for data: 35389696
I1113 06:24:38.069373 10046 layer_factory.hpp:77] Creating layer pool2
I1113 06:24:38.069382 10046 net.cpp:91] Creating Layer pool2
I1113 06:24:38.069387 10046 net.cpp:425] pool2 <- conv2
I1113 06:24:38.069396 10046 net.cpp:399] pool2 -> pool2
I1113 06:24:38.069433 10046 net.cpp:141] Setting up pool2
I1113 06:24:38.069443 10046 net.cpp:148] Top shape: 64 48 8 8 (196608)
I1113 06:24:38.069448 10046 net.cpp:156] Memory required for data: 36176128
I1113 06:24:38.069454 10046 layer_factory.hpp:77] Creating layer conv3
I1113 06:24:38.069465 10046 net.cpp:91] Creating Layer conv3
I1113 06:24:38.069470 10046 net.cpp:425] conv3 <- pool2
I1113 06:24:38.069479 10046 net.cpp:399] conv3 -> conv3
I1113 06:24:38.071882 10046 net.cpp:141] Setting up conv3
I1113 06:24:38.071899 10046 net.cpp:148] Top shape: 64 48 8 8 (196608)
I1113 06:24:38.071905 10046 net.cpp:156] Memory required for data: 36962560
I1113 06:24:38.071918 10046 layer_factory.hpp:77] Creating layer relu3
I1113 06:24:38.071928 10046 net.cpp:91] Creating Layer relu3
I1113 06:24:38.071933 10046 net.cpp:425] relu3 <- conv3
I1113 06:24:38.071941 10046 net.cpp:386] relu3 -> conv3 (in-place)
I1113 06:24:38.072154 10046 net.cpp:141] Setting up relu3
I1113 06:24:38.072170 10046 net.cpp:148] Top shape: 64 48 8 8 (196608)
I1113 06:24:38.072175 10046 net.cpp:156] Memory required for data: 37748992
I1113 06:24:38.072181 10046 layer_factory.hpp:77] Creating layer pool3
I1113 06:24:38.072190 10046 net.cpp:91] Creating Layer pool3
I1113 06:24:38.072196 10046 net.cpp:425] pool3 <- conv3
I1113 06:24:38.072203 10046 net.cpp:399] pool3 -> pool3
I1113 06:24:38.072244 10046 net.cpp:141] Setting up pool3
I1113 06:24:38.072254 10046 net.cpp:148] Top shape: 64 48 4 4 (49152)
I1113 06:24:38.072260 10046 net.cpp:156] Memory required for data: 37945600
I1113 06:24:38.072266 10046 layer_factory.hpp:77] Creating layer conv4
I1113 06:24:38.072278 10046 net.cpp:91] Creating Layer conv4
I1113 06:24:38.072283 10046 net.cpp:425] conv4 <- pool3
I1113 06:24:38.072291 10046 net.cpp:399] conv4 -> conv4
I1113 06:24:38.076994 10046 net.cpp:141] Setting up conv4
I1113 06:24:38.077016 10046 net.cpp:148] Top shape: 64 96 4 4 (98304)
I1113 06:24:38.077028 10046 net.cpp:156] Memory required for data: 38338816
I1113 06:24:38.077039 10046 layer_factory.hpp:77] Creating layer relu4
I1113 06:24:38.077047 10046 net.cpp:91] Creating Layer relu4
I1113 06:24:38.077054 10046 net.cpp:425] relu4 <- conv4
I1113 06:24:38.077060 10046 net.cpp:386] relu4 -> conv4 (in-place)
I1113 06:24:38.077191 10046 net.cpp:141] Setting up relu4
I1113 06:24:38.077203 10046 net.cpp:148] Top shape: 64 96 4 4 (98304)
I1113 06:24:38.077209 10046 net.cpp:156] Memory required for data: 38732032
I1113 06:24:38.077215 10046 layer_factory.hpp:77] Creating layer pool4
I1113 06:24:38.077224 10046 net.cpp:91] Creating Layer pool4
I1113 06:24:38.077229 10046 net.cpp:425] pool4 <- conv4
I1113 06:24:38.077237 10046 net.cpp:399] pool4 -> pool4
I1113 06:24:38.077278 10046 net.cpp:141] Setting up pool4
I1113 06:24:38.077288 10046 net.cpp:148] Top shape: 64 96 2 2 (24576)
I1113 06:24:38.077294 10046 net.cpp:156] Memory required for data: 38830336
I1113 06:24:38.077299 10046 layer_factory.hpp:77] Creating layer ip1
I1113 06:24:38.077311 10046 net.cpp:91] Creating Layer ip1
I1113 06:24:38.077316 10046 net.cpp:425] ip1 <- pool4
I1113 06:24:38.077324 10046 net.cpp:399] ip1 -> ip1
I1113 06:24:38.078524 10046 net.cpp:141] Setting up ip1
I1113 06:24:38.078536 10046 net.cpp:148] Top shape: 64 96 (6144)
I1113 06:24:38.078542 10046 net.cpp:156] Memory required for data: 38854912
I1113 06:24:38.078554 10046 layer_factory.hpp:77] Creating layer ip2
I1113 06:24:38.078564 10046 net.cpp:91] Creating Layer ip2
I1113 06:24:38.078570 10046 net.cpp:425] ip2 <- ip1
I1113 06:24:38.078579 10046 net.cpp:399] ip2 -> ip2
I1113 06:24:38.078699 10046 net.cpp:141] Setting up ip2
I1113 06:24:38.078711 10046 net.cpp:148] Top shape: 64 10 (640)
I1113 06:24:38.078716 10046 net.cpp:156] Memory required for data: 38857472
I1113 06:24:38.078724 10046 layer_factory.hpp:77] Creating layer loss
I1113 06:24:38.078733 10046 net.cpp:91] Creating Layer loss
I1113 06:24:38.078738 10046 net.cpp:425] loss <- ip2
I1113 06:24:38.078744 10046 net.cpp:425] loss <- label
I1113 06:24:38.078759 10046 net.cpp:399] loss -> loss
I1113 06:24:38.078770 10046 layer_factory.hpp:77] Creating layer loss
…
I1113 06:24:38.079205 10046 net.cpp:274] Network initialization done.
I1113 06:24:38.079901 10046 solver.cpp:181] Creating test net (#0) specified by test_net file: /home/ubuntu/results/bohb/smallcnn/trial200/arm27/network_val.prototxt
I1113 06:24:38.080112 10046 net.cpp:49] Initializing net from parameters: 
state {
  phase: TEST
}
layer {
  name: "data"
  type: "Data"
  top: "data"
  top: "label"
  transform_param {
    mean_file: "/mnt/data/cifar10_mean/mean.binaryproto"
  }
  data_param {
    source: "/mnt/data/cifar10_mean/cifar10_evenval_lmdb"
    batch_size: 64
    backend: LMDB
  }
}
layer {
  name: "conv1"
  type: "Convolution"
  bottom: "data"
  top: "conv1"
  param {
    lr_mult: 1
    decay_mult: 0.00096221949
  }
  param {
    lr_mult: 2
    decay_mult: 0
  }
  convolution_param {
    num_output: 48
    pad: 2
    kernel_size: 5
    stride: 1
    weight_filler {
      type: "gaussian"
      std: 0.0035085571
    }
    bias_filler {
      type: "constant"
    }
  }
}
layer {
  name: "relu1"
  type: "ReLU"
  bottom: "conv1"
  top: "conv1"
}
layer {
  name: "pool1"
  type: "Pooling"
  bottom: "conv1"
  top: "pool1"
  pooling_param {
    pool: MAX
    kernel_size: 3
    stride: 2
  }
}
layer {
  name: "conv2"
  type: "Convolution"
  bottom: "pool1"
  top: "conv2"
  param {
    lr_mult: 1
    decay_mult: 0.00096221949
  }
  param {
    lr_mult: 2
    decay_mult: 0
  }
  convolution_param {
    num_output: 48
    pad: 2
    kernel_size: 5
    stride: 1
    weight_filler {
      type: "gaussian"
      std: 0.0035085571
    }
    bias_filler {
      type: "constant"
    }
  }
}
layer {
  name: "relu2"
  type: "ReLU"
  bottom: "conv2"
  top: "conv2"
}
layer {
  name: "pool2"
  type: "Pooling"
  bottom: "conv2"
  top: "pool2"
  pooling_param {
    pool: MAX
    kernel_size: 3
    stride: 2
  }
}
layer {
  name: "conv3"
  type: "Convolution"
  bottom: "pool2"
  top: "conv3"
  param {
    lr_mult: 1
    decay_mult: 0.00096221949
  }
  param {
    lr_mult: 2
    decay_mult: 0
  }
  convolution_param {
    num_output: 48
    pad: 2
    kernel_size: 5
    stride: 1
    weight_filler {
      type: "gaussian"
      std: 0.0035085571
    }
    bias_filler {
      type: "constant"
    }
  }
}
layer {
  name: "relu3"
  type: "ReLU"
  bottom: "conv3"
  top: "conv3"
}
layer {
  name: "pool3"
  type: "Pooling"
  bottom: "conv3"
  top: "pool3"
  pooling_param {
    pool: MAX
    kernel_size: 3
    stride: 2
  }
}
layer {
  name: "conv4"
  type: "Convolution"
  bottom: "pool3"
  top: "conv4"
  param {
    lr_mult: 1
    decay_mult: 0.00096221949
  }
  param {
    lr_mult: 2
    decay_mult: 0
  }
  convolution_param {
    num_output: 96
    pad: 2
    kernel_size: 5
    stride: 1
    weight_filler {
      type: "gaussian"
      std: 0.0035085571
    }
    bias_filler {
      type: "constant"
    }
  }
}
layer {
  name: "relu4"
  type: "ReLU"
  bottom: "conv4"
  top: "conv4"
}
layer {
  name: "pool4"
  type: "Pooling"
  bottom: "conv4"
  top: "pool4"
  pooling_param {
    pool: MAX
    kernel_size: 3
    stride: 2
  }
}
layer {
  name: "ip1"
  type: "InnerProduct"
  bottom: "pool4"
  top: "ip1"
  param {
    lr_mult: 1
    decay_mult: 0.077520333
  }
  param {
    lr_mult: 2
    decay_mult: 0
  }
  inner_product_param {
    num_output: 96
    weight_filler {
      type: "gaussian"
      std: 0.047519706
    }
    bias_filler {
      type: "constant"
    }
  }
}
layer {
  name: "ip2"
  type: "InnerProduct"
  bottom: "ip1"
  top: "ip2"
  param {
    lr_mult: 1
    decay_mult: 0.067126989
  }
  param {
    lr_mult: 2
    decay_mult: 0
  }
  inner_product_param {
    num_output: 10
    weight_filler {
      type: "gaussian"
      std: 0.1310385
    }
    bias_filler {
      type: "constant"
    }
  }
}
layer {
  name: "loss"
  type: "SoftmaxWithLoss"
  bottom: "ip2"
  bottom: "label"
  top: "loss"
}
layer {
  name: "acc"
  type: "Accuracy"
  bottom: "ip2"
  bottom: "label"
  top: "acc"
}
I1113 06:24:38.080199 10046 layer_factory.hpp:77] Creating layer data
I1113 06:24:38.080273 10046 net.cpp:91] Creating Layer data
I1113 06:24:38.080286 10046 net.cpp:399] data -> data
I1113 06:24:38.080297 10046 net.cpp:399] data -> label
I1113 06:24:38.080307 10046 data_transformer.cpp:25] Loading mean file from: /mnt/data/cifar10_mean/mean.binaryproto
I1113 06:24:38.080899 10049 db_lmdb.cpp:38] Opened lmdb /mnt/data/cifar10_mean/cifar10_evenval_lmdb
I1113 06:24:38.081003 10046 data_layer.cpp:41] output data size: 64,3,32,32
I1113 06:24:38.083322 10046 net.cpp:141] Setting up data
I1113 06:24:38.083359 10046 net.cpp:148] Top shape: 64 3 32 32 (196608)
I1113 06:24:38.083367 10046 net.cpp:148] Top shape: 64 (64)
I1113 06:24:38.083372 10046 net.cpp:156] Memory required for data: 786688
I1113 06:24:38.083379 10046 layer_factory.hpp:77] Creating layer label_data_1_split
I1113 06:24:38.083389 10046 net.cpp:91] Creating Layer label_data_1_split
I1113 06:24:38.083395 10046 net.cpp:425] label_data_1_split <- label
I1113 06:24:38.083405 10046 net.cpp:399] label_data_1_split -> label_data_1_split_0
I1113 06:24:38.083413 10046 net.cpp:399] label_data_1_split -> label_data_1_split_1
I1113 06:24:38.083459 10046 net.cpp:141] Setting up label_data_1_split
I1113 06:24:38.083469 10046 net.cpp:148] Top shape: 64 (64)
I1113 06:24:38.083477 10046 net.cpp:148] Top shape: 64 (64)
I1113 06:24:38.083484 10046 net.cpp:156] Memory required for data: 787200
I1113 06:24:38.083490 10046 layer_factory.hpp:77] Creating layer conv1
I1113 06:24:38.083503 10046 net.cpp:91] Creating Layer conv1
I1113 06:24:38.083509 10046 net.cpp:425] conv1 <- data
I1113 06:24:38.083518 10046 net.cpp:399] conv1 -> conv1
I1113 06:24:38.084583 10046 net.cpp:141] Setting up conv1
I1113 06:24:38.084600 10046 net.cpp:148] Top shape: 64 48 32 32 (3145728)
I1113 06:24:38.084606 10046 net.cpp:156] Memory required for data: 13370112
I1113 06:24:38.084620 10046 layer_factory.hpp:77] Creating layer relu1
I1113 06:24:38.084630 10046 net.cpp:91] Creating Layer relu1
I1113 06:24:38.084635 10046 net.cpp:425] relu1 <- conv1
I1113 06:24:38.084642 10046 net.cpp:386] relu1 -> conv1 (in-place)
I1113 06:24:38.084775 10046 net.cpp:141] Setting up relu1
I1113 06:24:38.084789 10046 net.cpp:148] Top shape: 64 48 32 32 (3145728)
I1113 06:24:38.084794 10046 net.cpp:156] Memory required for data: 25953024
I1113 06:24:38.084801 10046 layer_factory.hpp:77] Creating layer pool1
I1113 06:24:38.084811 10046 net.cpp:91] Creating Layer pool1
I1113 06:24:38.084817 10046 net.cpp:425] pool1 <- conv1
I1113 06:24:38.084825 10046 net.cpp:399] pool1 -> pool1
I1113 06:24:38.084868 10046 net.cpp:141] Setting up pool1
I1113 06:24:38.084878 10046 net.cpp:148] Top shape: 64 48 16 16 (786432)
I1113 06:24:38.084883 10046 net.cpp:156] Memory required for data: 29098752
I1113 06:24:38.084889 10046 layer_factory.hpp:77] Creating layer conv2
I1113 06:24:38.084903 10046 net.cpp:91] Creating Layer conv2
I1113 06:24:38.084908 10046 net.cpp:425] conv2 <- pool1
I1113 06:24:38.084916 10046 net.cpp:399] conv2 -> conv2
I1113 06:24:38.087492 10046 net.cpp:141] Setting up conv2
I1113 06:24:38.087509 10046 net.cpp:148] Top shape: 64 48 16 16 (786432)
I1113 06:24:38.087515 10046 net.cpp:156] Memory required for data: 32244480
I1113 06:24:38.087528 10046 layer_factory.hpp:77] Creating layer relu2
I1113 06:24:38.087538 10046 net.cpp:91] Creating Layer relu2
I1113 06:24:38.087543 10046 net.cpp:425] relu2 <- conv2
I1113 06:24:38.087551 10046 net.cpp:386] relu2 -> conv2 (in-place)
I1113 06:24:38.087783 10046 net.cpp:141] Setting up relu2
I1113 06:24:38.087798 10046 net.cpp:148] Top shape: 64 48 16 16 (786432)
I1113 06:24:38.087805 10046 net.cpp:156] Memory required for data: 35390208
I1113 06:24:38.087810 10046 layer_factory.hpp:77] Creating layer pool2
I1113 06:24:38.087819 10046 net.cpp:91] Creating Layer pool2
I1113 06:24:38.087824 10046 net.cpp:425] pool2 <- conv2
I1113 06:24:38.087832 10046 net.cpp:399] pool2 -> pool2
I1113 06:24:38.087872 10046 net.cpp:141] Setting up pool2
I1113 06:24:38.087882 10046 net.cpp:148] Top shape: 64 48 8 8 (196608)
I1113 06:24:38.087888 10046 net.cpp:156] Memory required for data: 36176640
I1113 06:24:38.087893 10046 layer_factory.hpp:77] Creating layer conv3
I1113 06:24:38.087906 10046 net.cpp:91] Creating Layer conv3
I1113 06:24:38.087913 10046 net.cpp:425] conv3 <- pool2
I1113 06:24:38.087920 10046 net.cpp:399] conv3 -> conv3
I1113 06:24:38.090914 10046 net.cpp:141] Setting up conv3
I1113 06:24:38.090932 10046 net.cpp:148] Top shape: 64 48 8 8 (196608)
I1113 06:24:38.090939 10046 net.cpp:156] Memory required for data: 36963072
I1113 06:24:38.090957 10046 layer_factory.hpp:77] Creating layer relu3
I1113 06:24:38.090966 10046 net.cpp:91] Creating Layer relu3
I1113 06:24:38.090972 10046 net.cpp:425] relu3 <- conv3
I1113 06:24:38.090981 10046 net.cpp:386] relu3 -> conv3 (in-place)
I1113 06:24:38.091214 10046 net.cpp:141] Setting up relu3
I1113 06:24:38.091229 10046 net.cpp:148] Top shape: 64 48 8 8 (196608)
I1113 06:24:38.091234 10046 net.cpp:156] Memory required for data: 37749504
I1113 06:24:38.091241 10046 layer_factory.hpp:77] Creating layer pool3
I1113 06:24:38.091250 10046 net.cpp:91] Creating Layer pool3
I1113 06:24:38.091255 10046 net.cpp:425] pool3 <- conv3
I1113 06:24:38.091264 10046 net.cpp:399] pool3 -> pool3
I1113 06:24:38.091307 10046 net.cpp:141] Setting up pool3
I1113 06:24:38.091318 10046 net.cpp:148] Top shape: 64 48 4 4 (49152)
I1113 06:24:38.091323 10046 net.cpp:156] Memory required for data: 37946112
I1113 06:24:38.091357 10046 layer_factory.hpp:77] Creating layer conv4
I1113 06:24:38.091372 10046 net.cpp:91] Creating Layer conv4
I1113 06:24:38.091379 10046 net.cpp:425] conv4 <- pool3
I1113 06:24:38.091387 10046 net.cpp:399] conv4 -> conv4
I1113 06:24:38.095667 10046 net.cpp:141] Setting up conv4
I1113 06:24:38.095685 10046 net.cpp:148] Top shape: 64 96 4 4 (98304)
I1113 06:24:38.095690 10046 net.cpp:156] Memory required for data: 38339328
I1113 06:24:38.095700 10046 layer_factory.hpp:77] Creating layer relu4
I1113 06:24:38.095710 10046 net.cpp:91] Creating Layer relu4
I1113 06:24:38.095715 10046 net.cpp:425] relu4 <- conv4
I1113 06:24:38.095722 10046 net.cpp:386] relu4 -> conv4 (in-place)
I1113 06:24:38.095857 10046 net.cpp:141] Setting up relu4
I1113 06:24:38.095870 10046 net.cpp:148] Top shape: 64 96 4 4 (98304)
I1113 06:24:38.095876 10046 net.cpp:156] Memory required for data: 38732544
I1113 06:24:38.095882 10046 layer_factory.hpp:77] Creating layer pool4
I1113 06:24:38.095891 10046 net.cpp:91] Creating Layer pool4
I1113 06:24:38.095896 10046 net.cpp:425] pool4 <- conv4
I1113 06:24:38.095904 10046 net.cpp:399] pool4 -> pool4
I1113 06:24:38.095947 10046 net.cpp:141] Setting up pool4
I1113 06:24:38.095957 10046 net.cpp:148] Top shape: 64 96 2 2 (24576)
I1113 06:24:38.095963 10046 net.cpp:156] Memory required for data: 38830848
I1113 06:24:38.095968 10046 layer_factory.hpp:77] Creating layer ip1
I1113 06:24:38.095978 10046 net.cpp:91] Creating Layer ip1
I1113 06:24:38.095983 10046 net.cpp:425] ip1 <- pool4
I1113 06:24:38.095993 10046 net.cpp:399] ip1 -> ip1
I1113 06:24:38.097200 10046 net.cpp:141] Setting up ip1
I1113 06:24:38.097213 10046 net.cpp:148] Top shape: 64 96 (6144)
I1113 06:24:38.097218 10046 net.cpp:156] Memory required for data: 38855424
I1113 06:24:38.097230 10046 layer_factory.hpp:77] Creating layer ip2
I1113 06:24:38.097240 10046 net.cpp:91] Creating Layer ip2
I1113 06:24:38.097246 10046 net.cpp:425] ip2 <- ip1
I1113 06:24:38.097255 10046 net.cpp:399] ip2 -> ip2
I1113 06:24:38.097427 10046 net.cpp:141] Setting up ip2
I1113 06:24:38.097446 10046 net.cpp:148] Top shape: 64 10 (640)
I1113 06:24:38.097457 10046 net.cpp:156] Memory required for data: 38857984
I1113 06:24:38.097468 10046 layer_factory.hpp:77] Creating layer ip2_ip2_0_split
I1113 06:24:38.097478 10046 net.cpp:91] Creating Layer ip2_ip2_0_split
I1113 06:24:38.097484 10046 net.cpp:425] ip2_ip2_0_split <- ip2
I1113 06:24:38.097492 10046 net.cpp:399] ip2_ip2_0_split -> ip2_ip2_0_split_0
I1113 06:24:38.097501 10046 net.cpp:399] ip2_ip2_0_split -> ip2_ip2_0_split_1
I1113 06:24:38.097542 10046 net.cpp:141] Setting up ip2_ip2_0_split
I1113 06:24:38.097551 10046 net.cpp:148] Top shape: 64 10 (640)
I1113 06:24:38.097558 10046 net.cpp:148] Top shape: 64 10 (640)
I1113 06:24:38.097563 10046 net.cpp:156] Memory required for data: 38863104
I1113 06:24:38.097568 10046 layer_factory.hpp:77] Creating layer loss
I1113 06:24:38.097575 10046 net.cpp:91] Creating Layer loss
I1113 06:24:38.097581 10046 net.cpp:425] loss <- ip2_ip2_0_split_0
I1113 06:24:38.097587 10046 net.cpp:425] loss <- label_data_1_split_0
I1113 06:24:38.097595 10046 net.cpp:399] loss -> loss
…
random_seed: 228
iter_size: 1
type: "SGD"
I1113 06:24:50.107980 10054 solver.cpp:81] Creating training net from train_net file: /home/ubuntu/results/bohb/smallcnn/trial200/arm28/network_train.prototxt
I1113 06:24:50.108423 10054 net.cpp:49] Initializing net from parameters: 
state {
  phase: TRAIN
}
layer {
  name: "data"
  type: "Data"
  top: "data"
  top: "label"
  transform_param {
    mean_file: "/mnt/data/cifar10_mean/mean.binaryproto"
  }
  data_param {
    source: "/mnt/data/cifar10_mean/cifar10_eventrain_lmdb"
    batch_size: 128
    backend: LMDB
  }
}
layer {
  name: "conv1"
  type: "Convolution"
  bottom: "data"
  top: "conv1"
  param {
    lr_mult: 1
    decay_mult: 9.4362636e-05
  }
  param {
    lr_mult: 2
    decay_mult: 0
  }
  convolution_param {
    num_output: 48
    pad: 2
    kernel_size: 5
    stride: 1
    weight_filler {
      type: "gaussian"
      std: 0.00074409082
    }
    bias_filler {
      type: "constant"
    }
  }
}
layer {
  name: "relu1"
  type: "ReLU"
  bottom: "conv1"
  top: "conv1"
}
layer {
  name: "pool1"
  type: "Pooling"
  bottom: "conv1"
  top: "pool1"
  pooling_param {
    pool: MAX
    kernel_size: 3
    stride: 2
  }
}
layer {
  name: "conv2"
  type: "Convolution"
  bottom: "pool1"
  top: "conv2"
  param {
    lr_mult: 1
    decay_mult: 9.4362636e-05
  }
  param {
    lr_mult: 2
    decay_mult: 0
  }
  convolution_param {
    num_output: 48
    pad: 2
    kernel_size: 5
    stride: 1
    weight_filler {
      type: "gaussian"
      std: 0.00074409082
    }
    bias_filler {
      type: "constant"
    }
  }
}
layer {
  name: "relu2"
  type: "ReLU"
  bottom: "conv2"
  top: "conv2"
}
layer {
  name: "pool2"
  type: "Pooling"
  bottom: "conv2"
  top: "pool2"
  pooling_param {
    pool: MAX
    kernel_size: 3
    stride: 2
  }
}
layer {
  name: "conv3"
  type: "Convolution"
  bottom: "pool2"
  top: "conv3"
  param {
    lr_mult: 1
    decay_mult: 9.4362636e-05
  }
  param {
    lr_mult: 2
    decay_mult: 0
  }
  convolution_param {
    num_output: 96
    pad: 2
    kernel_size: 5
    stride: 1
    weight_filler {
      type: "gaussian"
      std: 0.00074409082
    }
    bias_filler {
      type: "constant"
    }
  }
}
layer {
  name: "relu3"
  type: "ReLU"
  bottom: "conv3"
  top: "conv3"
}
layer {
  name: "pool3"
  type: "Pooling"
  bottom: "conv3"
  top: "pool3"
  pooling_param {
    pool: MAX
    kernel_size: 3
    stride: 2
  }
}
layer {
  name: "ip1"
  type: "InnerProduct"
  bottom: "pool3"
  top: "ip1"
  param {
    lr_mult: 1
    decay_mult: 0.00048514034
  }
  param {
    lr_mult: 2
    decay_mult: 0
  }
  inner_product_param {
    num_output: 96
    weight_filler {
      type: "gaussian"
      std: 0.055491451
    }
    bias_filler {
      type: "constant"
    }
  }
}
layer {
  name: "ip2"
  type: "InnerProduct"
  bottom: "ip1"
  top: "ip2"
  param {
    lr_mult: 1
    decay_mult: 43.048508
  }
  param {
    lr_mult: 2
    decay_mult: 0
  }
  inner_product_param {
    num_output: 10
    weight_filler {
      type: "gaussian"
      std: 0.27760687
    }
    bias_filler {
      type: "constant"
    }
  }
}
layer {
  name: "loss"
  type: "SoftmaxWithLoss"
  bottom: "ip2"
  bottom: "label"
  top: "loss"
}
I1113 06:24:50.108487 10054 layer_factory.hpp:77] Creating layer data
I1113 06:24:50.108597 10054 net.cpp:91] Creating Layer data
I1113 06:24:50.108609 10054 net.cpp:399] data -> data
I1113 06:24:50.108623 10054 net.cpp:399] data -> label
I1113 06:24:50.108634 10054 data_transformer.cpp:25] Loading mean file from: /mnt/data/cifar10_mean/mean.binaryproto
I1113 06:24:50.109650 10055 db_lmdb.cpp:38] Opened lmdb /mnt/data/cifar10_mean/cifar10_eventrain_lmdb
I1113 06:24:50.109745 10054 data_layer.cpp:41] output data size: 128,3,32,32
I1113 06:24:50.112905 10054 net.cpp:141] Setting up data
I1113 06:24:50.112924 10054 net.cpp:148] Top shape: 128 3 32 32 (393216)
I1113 06:24:50.112932 10054 net.cpp:148] Top shape: 128 (128)
I1113 06:24:50.112937 10054 net.cpp:156] Memory required for data: 1573376
I1113 06:24:50.112944 10054 layer_factory.hpp:77] Creating layer conv1
I1113 06:24:50.112959 10054 net.cpp:91] Creating Layer conv1
I1113 06:24:50.112965 10054 net.cpp:425] conv1 <- data
I1113 06:24:50.112975 10054 net.cpp:399] conv1 -> conv1
I1113 06:24:50.114001 10054 net.cpp:141] Setting up conv1
I1113 06:24:50.114019 10054 net.cpp:148] Top shape: 128 48 32 32 (6291456)
I1113 06:24:50.114025 10054 net.cpp:156] Memory required for data: 26739200
I1113 06:24:50.114040 10054 layer_factory.hpp:77] Creating layer relu1
I1113 06:24:50.114050 10054 net.cpp:91] Creating Layer relu1
I1113 06:24:50.114056 10054 net.cpp:425] relu1 <- conv1
I1113 06:24:50.114064 10054 net.cpp:386] relu1 -> conv1 (in-place)
I1113 06:24:50.114331 10054 net.cpp:141] Setting up relu1
I1113 06:24:50.114362 10054 net.cpp:148] Top shape: 128 48 32 32 (6291456)
I1113 06:24:50.114368 10054 net.cpp:156] Memory required for data: 51905024
I1113 06:24:50.114374 10054 layer_factory.hpp:77] Creating layer pool1
I1113 06:24:50.114383 10054 net.cpp:91] Creating Layer pool1
I1113 06:24:50.114389 10054 net.cpp:425] pool1 <- conv1
I1113 06:24:50.114398 10054 net.cpp:399] pool1 -> pool1
I1113 06:24:50.114442 10054 net.cpp:141] Setting up pool1
I1113 06:24:50.114454 10054 net.cpp:148] Top shape: 128 48 16 16 (1572864)
I1113 06:24:50.114459 10054 net.cpp:156] Memory required for data: 58196480
I1113 06:24:50.114464 10054 layer_factory.hpp:77] Creating layer conv2
I1113 06:24:50.114477 10054 net.cpp:91] Creating Layer conv2
I1113 06:24:50.114483 10054 net.cpp:425] conv2 <- pool1
I1113 06:24:50.114491 10054 net.cpp:399] conv2 -> conv2
I1113 06:24:50.117465 10054 net.cpp:141] Setting up conv2
I1113 06:24:50.117483 10054 net.cpp:148] Top shape: 128 48 16 16 (1572864)
I1113 06:24:50.117496 10054 net.cpp:156] Memory required for data: 64487936
I1113 06:24:50.117511 10054 layer_factory.hpp:77] Creating layer relu2
I1113 06:24:50.117519 10054 net.cpp:91] Creating Layer relu2
I1113 06:24:50.117525 10054 net.cpp:425] relu2 <- conv2
I1113 06:24:50.117533 10054 net.cpp:386] relu2 -> conv2 (in-place)
I1113 06:24:50.117753 10054 net.cpp:141] Setting up relu2
I1113 06:24:50.117769 10054 net.cpp:148] Top shape: 128 48 16 16 (1572864)
I1113 06:24:50.117774 10054 net.cpp:156] Memory required for data: 70779392
I1113 06:24:50.117780 10054 layer_factory.hpp:77] Creating layer pool2
I1113 06:24:50.117789 10054 net.cpp:91] Creating Layer pool2
I1113 06:24:50.117795 10054 net.cpp:425] pool2 <- conv2
I1113 06:24:50.117803 10054 net.cpp:399] pool2 -> pool2
I1113 06:24:50.117841 10054 net.cpp:141] Setting up pool2
I1113 06:24:50.117851 10054 net.cpp:148] Top shape: 128 48 8 8 (393216)
I1113 06:24:50.117856 10054 net.cpp:156] Memory required for data: 72352256
I1113 06:24:50.117862 10054 layer_factory.hpp:77] Creating layer conv3
I1113 06:24:50.117874 10054 net.cpp:91] Creating Layer conv3
I1113 06:24:50.117880 10054 net.cpp:425] conv3 <- pool2
I1113 06:24:50.117889 10054 net.cpp:399] conv3 -> conv3
I1113 06:24:50.122578 10054 net.cpp:141] Setting up conv3
I1113 06:24:50.122596 10054 net.cpp:148] Top shape: 128 96 8 8 (786432)
I1113 06:24:50.122602 10054 net.cpp:156] Memory required for data: 75497984
I1113 06:24:50.122615 10054 layer_factory.hpp:77] Creating layer relu3
I1113 06:24:50.122625 10054 net.cpp:91] Creating Layer relu3
I1113 06:24:50.122632 10054 net.cpp:425] relu3 <- conv3
I1113 06:24:50.122639 10054 net.cpp:386] relu3 -> conv3 (in-place)
I1113 06:24:50.122869 10054 net.cpp:141] Setting up relu3
I1113 06:24:50.122884 10054 net.cpp:148] Top shape: 128 96 8 8 (786432)
I1113 06:24:50.122890 10054 net.cpp:156] Memory required for data: 78643712
I1113 06:24:50.122897 10054 layer_factory.hpp:77] Creating layer pool3
I1113 06:24:50.122905 10054 net.cpp:91] Creating Layer pool3
I1113 06:24:50.122911 10054 net.cpp:425] pool3 <- conv3
I1113 06:24:50.122920 10054 net.cpp:399] pool3 -> pool3
I1113 06:24:50.122962 10054 net.cpp:141] Setting up pool3
I1113 06:24:50.122972 10054 net.cpp:148] Top shape: 128 96 4 4 (196608)
I1113 06:24:50.122978 10054 net.cpp:156] Memory required for data: 79430144
I1113 06:24:50.122984 10054 layer_factory.hpp:77] Creating layer ip1
I1113 06:24:50.122993 10054 net.cpp:91] Creating Layer ip1
I1113 06:24:50.122999 10054 net.cpp:425] ip1 <- pool3
I1113 06:24:50.123008 10054 net.cpp:399] ip1 -> ip1
I1113 06:24:50.128016 10054 net.cpp:141] Setting up ip1
I1113 06:24:50.128034 10054 net.cpp:148] Top shape: 128 96 (12288)
I1113 06:24:50.128041 10054 net.cpp:156] Memory required for data: 79479296
I1113 06:24:50.128049 10054 layer_factory.hpp:77] Creating layer ip2
I1113 06:24:50.128060 10054 net.cpp:91] Creating Layer ip2
I1113 06:24:50.128067 10054 net.cpp:425] ip2 <- ip1
I1113 06:24:50.128074 10054 net.cpp:399] ip2 -> ip2
I1113 06:24:50.128198 10054 net.cpp:141] Setting up ip2
I1113 06:24:50.128211 10054 net.cpp:148] Top shape: 128 10 (1280)
I1113 06:24:50.128216 10054 net.cpp:156] Memory required for data: 79484416
I1113 06:24:50.128227 10054 layer_factory.hpp:77] Creating layer loss
I1113 06:24:50.128237 10054 net.cpp:91] Creating Layer loss
I1113 06:24:50.128242 10054 net.cpp:425] loss <- ip2
I1113 06:24:50.128249 10054 net.cpp:425] loss <- label
I1113 06:24:50.128257 10054 net.cpp:399] loss -> loss
I1113 06:24:50.128268 10054 layer_factory.hpp:77] Creating layer loss
…
I1113 06:24:50.128607 10054 net.cpp:274] Network initialization done.
I1113 06:24:50.129176 10054 solver.cpp:181] Creating test net (#0) specified by test_net file: /home/ubuntu/results/bohb/smallcnn/trial200/arm28/network_val.prototxt
I1113 06:24:50.129369 10054 net.cpp:49] Initializing net from parameters: 
state {
  phase: TEST
}
layer {
  name: "data"
  type: "Data"
  top: "data"
  top: "label"
  transform_param {
    mean_file: "/mnt/data/cifar10_mean/mean.binaryproto"
  }
  data_param {
    source: "/mnt/data/cifar10_mean/cifar10_evenval_lmdb"
    batch_size: 128
    backend: LMDB
  }
}
layer {
  name: "conv1"
  type: "Convolution"
  bottom: "data"
  top: "conv1"
  param {
    lr_mult: 1
    decay_mult: 9.4362636e-05
  }
  param {
    lr_mult: 2
    decay_mult: 0
  }
  convolution_param {
    num_output: 48
    pad: 2
    kernel_size: 5
    stride: 1
    weight_filler {
      type: "gaussian"
      std: 0.00074409082
    }
    bias_filler {
      type: "constant"
    }
  }
}
layer {
  name: "relu1"
  type: "ReLU"
  bottom: "conv1"
  top: "conv1"
}
layer {
  name: "pool1"
  type: "Pooling"
  bottom: "conv1"
  top: "pool1"
  pooling_param {
    pool: MAX
    kernel_size: 3
    stride: 2
  }
}
layer {
  name: "conv2"
  type: "Convolution"
  bottom: "pool1"
  top: "conv2"
  param {
    lr_mult: 1
    decay_mult: 9.4362636e-05
  }
  param {
    lr_mult: 2
    decay_mult: 0
  }
  convolution_param {
    num_output: 48
    pad: 2
    kernel_size: 5
    stride: 1
    weight_filler {
      type: "gaussian"
      std: 0.00074409082
    }
    bias_filler {
      type: "constant"
    }
  }
}
layer {
  name: "relu2"
  type: "ReLU"
  bottom: "conv2"
  top: "conv2"
}
layer {
  name: "pool2"
  type: "Pooling"
  bottom: "conv2"
  top: "pool2"
  pooling_param {
    pool: MAX
    kernel_size: 3
    stride: 2
  }
}
layer {
  name: "conv3"
  type: "Convolution"
  bottom: "pool2"
  top: "conv3"
  param {
    lr_mult: 1
    decay_mult: 9.4362636e-05
  }
  param {
    lr_mult: 2
    decay_mult: 0
  }
  convolution_param {
    num_output: 96
    pad: 2
    kernel_size: 5
    stride: 1
    weight_filler {
      type: "gaussian"
      std: 0.00074409082
    }
    bias_filler {
      type: "constant"
    }
  }
}
layer {
  name: "relu3"
  type: "ReLU"
  bottom: "conv3"
  top: "conv3"
}
layer {
  name: "pool3"
  type: "Pooling"
  bottom: "conv3"
  top: "pool3"
  pooling_param {
    pool: MAX
    kernel_size: 3
    stride: 2
  }
}
layer {
  name: "ip1"
  type: "InnerProduct"
  bottom: "pool3"
  top: "ip1"
  param {
    lr_mult: 1
    decay_mult: 0.00048514034
  }
  param {
    lr_mult: 2
    decay_mult: 0
  }
  inner_product_param {
    num_output: 96
    weight_filler {
      type: "gaussian"
      std: 0.055491451
    }
    bias_filler {
      type: "constant"
    }
  }
}
layer {
  name: "ip2"
  type: "InnerProduct"
  bottom: "ip1"
  top: "ip2"
  param {
    lr_mult: 1
    decay_mult: 43.048508
  }
  param {
    lr_mult: 2
    decay_mult: 0
  }
  inner_product_param {
    num_output: 10
    weight_filler {
      type: "gaussian"
      std: 0.27760687
    }
    bias_filler {
      type: "constant"
    }
  }
}
layer {
  name: "loss"
  type: "SoftmaxWithLoss"
  bottom: "ip2"
  bottom: "label"
  top: "loss"
}
layer {
  name: "acc"
  type: "Accuracy"
  bottom: "ip2"
  bottom: "label"
  top: "acc"
}
I1113 06:24:50.129446 10054 layer_factory.hpp:77] Creating layer data
I1113 06:24:50.129560 10054 net.cpp:91] Creating Layer data
I1113 06:24:50.129573 10054 net.cpp:399] data -> data
I1113 06:24:50.129585 10054 net.cpp:399] data -> label
I1113 06:24:50.129595 10054 data_transformer.cpp:25] Loading mean file from: /mnt/data/cifar10_mean/mean.binaryproto
I1113 06:24:50.130187 10057 db_lmdb.cpp:38] Opened lmdb /mnt/data/cifar10_mean/cifar10_evenval_lmdb
I1113 06:24:50.130295 10054 data_layer.cpp:41] output data size: 128,3,32,32
I1113 06:24:50.133496 10054 net.cpp:141] Setting up data
I1113 06:24:50.133515 10054 net.cpp:148] Top shape: 128 3 32 32 (393216)
I1113 06:24:50.133522 10054 net.cpp:148] Top shape: 128 (128)
I1113 06:24:50.133528 10054 net.cpp:156] Memory required for data: 1573376
I1113 06:24:50.133534 10054 layer_factory.hpp:77] Creating layer label_data_1_split
I1113 06:24:50.133545 10054 net.cpp:91] Creating Layer label_data_1_split
I1113 06:24:50.133550 10054 net.cpp:425] label_data_1_split <- label
I1113 06:24:50.133558 10054 net.cpp:399] label_data_1_split -> label_data_1_split_0
I1113 06:24:50.133569 10054 net.cpp:399] label_data_1_split -> label_data_1_split_1
I1113 06:24:50.133612 10054 net.cpp:141] Setting up label_data_1_split
I1113 06:24:50.133623 10054 net.cpp:148] Top shape: 128 (128)
I1113 06:24:50.133630 10054 net.cpp:148] Top shape: 128 (128)
I1113 06:24:50.133635 10054 net.cpp:156] Memory required for data: 1574400
I1113 06:24:50.133641 10054 layer_factory.hpp:77] Creating layer conv1
I1113 06:24:50.133653 10054 net.cpp:91] Creating Layer conv1
I1113 06:24:50.133659 10054 net.cpp:425] conv1 <- data
I1113 06:24:50.133667 10054 net.cpp:399] conv1 -> conv1
I1113 06:24:50.134953 10054 net.cpp:141] Setting up conv1
I1113 06:24:50.134970 10054 net.cpp:148] Top shape: 128 48 32 32 (6291456)
I1113 06:24:50.134976 10054 net.cpp:156] Memory required for data: 26740224
I1113 06:24:50.134990 10054 layer_factory.hpp:77] Creating layer relu1
I1113 06:24:50.134999 10054 net.cpp:91] Creating Layer relu1
I1113 06:24:50.135005 10054 net.cpp:425] relu1 <- conv1
I1113 06:24:50.135012 10054 net.cpp:386] relu1 -> conv1 (in-place)
I1113 06:24:50.135239 10054 net.cpp:141] Setting up relu1
I1113 06:24:50.135258 10054 net.cpp:148] Top shape: 128 48 32 32 (6291456)
I1113 06:24:50.135264 10054 net.cpp:156] Memory required for data: 51906048
I1113 06:24:50.135270 10054 layer_factory.hpp:77] Creating layer pool1
I1113 06:24:50.135280 10054 net.cpp:91] Creating Layer pool1
I1113 06:24:50.135287 10054 net.cpp:425] pool1 <- conv1
I1113 06:24:50.135294 10054 net.cpp:399] pool1 -> pool1
I1113 06:24:50.135356 10054 net.cpp:141] Setting up pool1
I1113 06:24:50.135370 10054 net.cpp:148] Top shape: 128 48 16 16 (1572864)
I1113 06:24:50.135375 10054 net.cpp:156] Memory required for data: 58197504
I1113 06:24:50.135381 10054 layer_factory.hpp:77] Creating layer conv2
I1113 06:24:50.135394 10054 net.cpp:91] Creating Layer conv2
I1113 06:24:50.135401 10054 net.cpp:425] conv2 <- pool1
I1113 06:24:50.135409 10054 net.cpp:399] conv2 -> conv2
I1113 06:24:50.137933 10054 net.cpp:141] Setting up conv2
I1113 06:24:50.137949 10054 net.cpp:148] Top shape: 128 48 16 16 (1572864)
I1113 06:24:50.137964 10054 net.cpp:156] Memory required for data: 64488960
I1113 06:24:50.137976 10054 layer_factory.hpp:77] Creating layer relu2
I1113 06:24:50.137985 10054 net.cpp:91] Creating Layer relu2
I1113 06:24:50.137991 10054 net.cpp:425] relu2 <- conv2
I1113 06:24:50.138000 10054 net.cpp:386] relu2 -> conv2 (in-place)
I1113 06:24:50.138136 10054 net.cpp:141] Setting up relu2
I1113 06:24:50.138149 10054 net.cpp:148] Top shape: 128 48 16 16 (1572864)
I1113 06:24:50.138155 10054 net.cpp:156] Memory required for data: 70780416
I1113 06:24:50.138161 10054 layer_factory.hpp:77] Creating layer pool2
I1113 06:24:50.138170 10054 net.cpp:91] Creating Layer pool2
I1113 06:24:50.138175 10054 net.cpp:425] pool2 <- conv2
I1113 06:24:50.138190 10054 net.cpp:399] pool2 -> pool2
I1113 06:24:50.138229 10054 net.cpp:141] Setting up pool2
I1113 06:24:50.138239 10054 net.cpp:148] Top shape: 128 48 8 8 (393216)
I1113 06:24:50.138244 10054 net.cpp:156] Memory required for data: 72353280
I1113 06:24:50.138250 10054 layer_factory.hpp:77] Creating layer conv3
I1113 06:24:50.138263 10054 net.cpp:91] Creating Layer conv3
I1113 06:24:50.138269 10054 net.cpp:425] conv3 <- pool2
I1113 06:24:50.138278 10054 net.cpp:399] conv3 -> conv3
I1113 06:24:50.142567 10054 net.cpp:141] Setting up conv3
I1113 06:24:50.142585 10054 net.cpp:148] Top shape: 128 96 8 8 (786432)
I1113 06:24:50.142591 10054 net.cpp:156] Memory required for data: 75499008
I1113 06:24:50.142604 10054 layer_factory.hpp:77] Creating layer relu3
I1113 06:24:50.142614 10054 net.cpp:91] Creating Layer relu3
I1113 06:24:50.142619 10054 net.cpp:425] relu3 <- conv3
I1113 06:24:50.142627 10054 net.cpp:386] relu3 -> conv3 (in-place)
I1113 06:24:50.142855 10054 net.cpp:141] Setting up relu3
I1113 06:24:50.142870 10054 net.cpp:148] Top shape: 128 96 8 8 (786432)
I1113 06:24:50.142876 10054 net.cpp:156] Memory required for data: 78644736
I1113 06:24:50.142882 10054 layer_factory.hpp:77] Creating layer pool3
I1113 06:24:50.142891 10054 net.cpp:91] Creating Layer pool3
I1113 06:24:50.142897 10054 net.cpp:425] pool3 <- conv3
I1113 06:24:50.142905 10054 net.cpp:399] pool3 -> pool3
I1113 06:24:50.142948 10054 net.cpp:141] Setting up pool3
I1113 06:24:50.142959 10054 net.cpp:148] Top shape: 128 96 4 4 (196608)
I1113 06:24:50.142966 10054 net.cpp:156] Memory required for data: 79431168
I1113 06:24:50.142971 10054 layer_factory.hpp:77] Creating layer ip1
I1113 06:24:50.142980 10054 net.cpp:91] Creating Layer ip1
I1113 06:24:50.142987 10054 net.cpp:425] ip1 <- pool3
I1113 06:24:50.142995 10054 net.cpp:399] ip1 -> ip1
I1113 06:24:50.148017 10054 net.cpp:141] Setting up ip1
I1113 06:24:50.148034 10054 net.cpp:148] Top shape: 128 96 (12288)
I1113 06:24:50.148041 10054 net.cpp:156] Memory required for data: 79480320
I1113 06:24:50.148052 10054 layer_factory.hpp:77] Creating layer ip2
I1113 06:24:50.148063 10054 net.cpp:91] Creating Layer ip2
I1113 06:24:50.148069 10054 net.cpp:425] ip2 <- ip1
I1113 06:24:50.148079 10054 net.cpp:399] ip2 -> ip2
I1113 06:24:50.148202 10054 net.cpp:141] Setting up ip2
I1113 06:24:50.148214 10054 net.cpp:148] Top shape: 128 10 (1280)
I1113 06:24:50.148219 10054 net.cpp:156] Memory required for data: 79485440
I1113 06:24:50.148231 10054 layer_factory.hpp:77] Creating layer ip2_ip2_0_split
I1113 06:24:50.148241 10054 net.cpp:91] Creating Layer ip2_ip2_0_split
I1113 06:24:50.148245 10054 net.cpp:425] ip2_ip2_0_split <- ip2
I1113 06:24:50.148253 10054 net.cpp:399] ip2_ip2_0_split -> ip2_ip2_0_split_0
I1113 06:24:50.148262 10054 net.cpp:399] ip2_ip2_0_split -> ip2_ip2_0_split_1
I1113 06:24:50.148296 10054 net.cpp:141] Setting up ip2_ip2_0_split
I1113 06:24:50.148305 10054 net.cpp:148] Top shape: 128 10 (1280)
I1113 06:24:50.148311 10054 net.cpp:148] Top shape: 128 10 (1280)
I1113 06:24:50.148316 10054 net.cpp:156] Memory required for data: 79495680
I1113 06:24:50.148322 10054 layer_factory.hpp:77] Creating layer loss
I1113 06:24:50.148330 10054 net.cpp:91] Creating Layer loss
I1113 06:24:50.148335 10054 net.cpp:425] loss <- ip2_ip2_0_split_0
I1113 06:24:50.148342 10054 net.cpp:425] loss <- label_data_1_split_0
I1113 06:24:50.148350 10054 net.cpp:399] loss -> loss
…
random_seed: 229
iter_size: 1
type: "SGD"
I1113 06:25:04.728029 10106 solver.cpp:81] Creating training net from train_net file: /home/ubuntu/results/bohb/smallcnn/trial200/arm29/network_train.prototxt
I1113 06:25:04.728544 10106 net.cpp:49] Initializing net from parameters: 
state {
  phase: TRAIN
}
layer {
  name: "data"
  type: "Data"
  top: "data"
  top: "label"
  transform_param {
    mean_file: "/mnt/data/cifar10_mean/mean.binaryproto"
  }
  data_param {
    source: "/mnt/data/cifar10_mean/cifar10_eventrain_lmdb"
    batch_size: 64
    backend: LMDB
  }
}
layer {
  name: "conv1"
  type: "Convolution"
  bottom: "data"
  top: "conv1"
  param {
    lr_mult: 1
    decay_mult: 0.00031418545
  }
  param {
    lr_mult: 2
    decay_mult: 0
  }
  convolution_param {
    num_output: 64
    pad: 2
    kernel_size: 5
    stride: 1
    weight_filler {
      type: "gaussian"
      std: 0.023403089
    }
    bias_filler {
      type: "constant"
    }
  }
}
layer {
  name: "relu1"
  type: "ReLU"
  bottom: "conv1"
  top: "conv1"
}
layer {
  name: "pool1"
  type: "Pooling"
  bottom: "conv1"
  top: "pool1"
  pooling_param {
    pool: MAX
    kernel_size: 3
    stride: 2
  }
}
layer {
  name: "conv2"
  type: "Convolution"
  bottom: "pool1"
  top: "conv2"
  param {
    lr_mult: 1
    decay_mult: 0.00031418545
  }
  param {
    lr_mult: 2
    decay_mult: 0
  }
  convolution_param {
    num_output: 64
    pad: 2
    kernel_size: 5
    stride: 1
    weight_filler {
      type: "gaussian"
      std: 0.023403089
    }
    bias_filler {
      type: "constant"
    }
  }
}
layer {
  name: "relu2"
  type: "ReLU"
  bottom: "conv2"
  top: "conv2"
}
layer {
  name: "pool2"
  type: "Pooling"
  bottom: "conv2"
  top: "pool2"
  pooling_param {
    pool: MAX
    kernel_size: 3
    stride: 2
  }
}
layer {
  name: "conv3"
  type: "Convolution"
  bottom: "pool2"
  top: "conv3"
  param {
    lr_mult: 1
    decay_mult: 0.00031418545
  }
  param {
    lr_mult: 2
    decay_mult: 0
  }
  convolution_param {
    num_output: 64
    pad: 2
    kernel_size: 5
    stride: 1
    weight_filler {
      type: "gaussian"
      std: 0.023403089
    }
    bias_filler {
      type: "constant"
    }
  }
}
layer {
  name: "relu3"
  type: "ReLU"
  bottom: "conv3"
  top: "conv3"
}
layer {
  name: "pool3"
  type: "Pooling"
  bottom: "conv3"
  top: "pool3"
  pooling_param {
    pool: MAX
    kernel_size: 3
    stride: 2
  }
}
layer {
  name: "conv4"
  type: "Convolution"
  bottom: "pool3"
  top: "conv4"
  param {
    lr_mult: 1
    decay_mult: 0.00031418545
  }
  param {
    lr_mult: 2
    decay_mult: 0
  }
  convolution_param {
    num_output: 128
    pad: 2
    kernel_size: 5
    stride: 1
    weight_filler {
      type: "gaussian"
      std: 0.023403089
    }
    bias_filler {
      type: "constant"
    }
  }
}
layer {
  name: "relu4"
  type: "ReLU"
  bottom: "conv4"
  top: "conv4"
}
layer {
  name: "pool4"
  type: "Pooling"
  bottom: "conv4"
  top: "pool4"
  pooling_param {
    pool: MAX
    kernel_size: 3
    stride: 2
  }
}
layer {
  name: "ip1"
  type: "InnerProduct"
  bottom: "pool4"
  top: "ip1"
  param {
    lr_mult: 1
    decay_mult: 0.0093304776
  }
  param {
    lr_mult: 2
    decay_mult: 0
  }
  inner_product_param {
    num_output: 128
    weight_filler {
      type: "gaussian"
      std: 0.060898535
    }
    bias_filler {
      type: "constant"
    }
  }
}
layer {
  name: "ip2"
  type: "InnerProduct"
  bottom: "ip1"
  top: "ip2"
  param {
    lr_mult: 1
    decay_mult: 1.445919
  }
  param {
    lr_mult: 2
    decay_mult: 0
  }
  inner_product_param {
    num_output: 10
    weight_filler {
      type: "gaussian"
      std: 0.0089212693
    }
    bias_filler {
      type: "constant"
    }
  }
}
layer {
  name: "loss"
  type: "SoftmaxWithLoss"
  bottom: "ip2"
  bottom: "label"
  top: "loss"
}
I1113 06:25:04.728613 10106 layer_factory.hpp:77] Creating layer data
I1113 06:25:04.728700 10106 net.cpp:91] Creating Layer data
I1113 06:25:04.728714 10106 net.cpp:399] data -> data
I1113 06:25:04.728729 10106 net.cpp:399] data -> label
I1113 06:25:04.728739 10106 data_transformer.cpp:25] Loading mean file from: /mnt/data/cifar10_mean/mean.binaryproto
I1113 06:25:04.729782 10107 db_lmdb.cpp:38] Opened lmdb /mnt/data/cifar10_mean/cifar10_eventrain_lmdb
I1113 06:25:04.729874 10106 data_layer.cpp:41] output data size: 64,3,32,32
I1113 06:25:04.732139 10106 net.cpp:141] Setting up data
I1113 06:25:04.732158 10106 net.cpp:148] Top shape: 64 3 32 32 (196608)
I1113 06:25:04.732167 10106 net.cpp:148] Top shape: 64 (64)
I1113 06:25:04.732177 10106 net.cpp:156] Memory required for data: 786688
I1113 06:25:04.732184 10106 layer_factory.hpp:77] Creating layer conv1
I1113 06:25:04.732200 10106 net.cpp:91] Creating Layer conv1
I1113 06:25:04.732208 10106 net.cpp:425] conv1 <- data
I1113 06:25:04.732218 10106 net.cpp:399] conv1 -> conv1
I1113 06:25:04.733841 10106 net.cpp:141] Setting up conv1
I1113 06:25:04.733860 10106 net.cpp:148] Top shape: 64 64 32 32 (4194304)
I1113 06:25:04.733865 10106 net.cpp:156] Memory required for data: 17563904
I1113 06:25:04.733880 10106 layer_factory.hpp:77] Creating layer relu1
I1113 06:25:04.733909 10106 net.cpp:91] Creating Layer relu1
I1113 06:25:04.733916 10106 net.cpp:425] relu1 <- conv1
I1113 06:25:04.733927 10106 net.cpp:386] relu1 -> conv1 (in-place)
I1113 06:25:04.734139 10106 net.cpp:141] Setting up relu1
I1113 06:25:04.734153 10106 net.cpp:148] Top shape: 64 64 32 32 (4194304)
I1113 06:25:04.734158 10106 net.cpp:156] Memory required for data: 34341120
I1113 06:25:04.734165 10106 layer_factory.hpp:77] Creating layer pool1
I1113 06:25:04.734174 10106 net.cpp:91] Creating Layer pool1
I1113 06:25:04.734179 10106 net.cpp:425] pool1 <- conv1
I1113 06:25:04.734189 10106 net.cpp:399] pool1 -> pool1
I1113 06:25:04.734239 10106 net.cpp:141] Setting up pool1
I1113 06:25:04.734251 10106 net.cpp:148] Top shape: 64 64 16 16 (1048576)
I1113 06:25:04.734256 10106 net.cpp:156] Memory required for data: 38535424
I1113 06:25:04.734261 10106 layer_factory.hpp:77] Creating layer conv2
I1113 06:25:04.734280 10106 net.cpp:91] Creating Layer conv2
I1113 06:25:04.734287 10106 net.cpp:425] conv2 <- pool1
I1113 06:25:04.734295 10106 net.cpp:399] conv2 -> conv2
I1113 06:25:04.738703 10106 net.cpp:141] Setting up conv2
I1113 06:25:04.738723 10106 net.cpp:148] Top shape: 64 64 16 16 (1048576)
I1113 06:25:04.738729 10106 net.cpp:156] Memory required for data: 42729728
I1113 06:25:04.738740 10106 layer_factory.hpp:77] Creating layer relu2
I1113 06:25:04.738749 10106 net.cpp:91] Creating Layer relu2
I1113 06:25:04.738754 10106 net.cpp:425] relu2 <- conv2
I1113 06:25:04.738761 10106 net.cpp:386] relu2 -> conv2 (in-place)
I1113 06:25:04.738992 10106 net.cpp:141] Setting up relu2
I1113 06:25:04.739007 10106 net.cpp:148] Top shape: 64 64 16 16 (1048576)
I1113 06:25:04.739012 10106 net.cpp:156] Memory required for data: 46924032
I1113 06:25:04.739018 10106 layer_factory.hpp:77] Creating layer pool2
I1113 06:25:04.739027 10106 net.cpp:91] Creating Layer pool2
I1113 06:25:04.739032 10106 net.cpp:425] pool2 <- conv2
I1113 06:25:04.739042 10106 net.cpp:399] pool2 -> pool2
I1113 06:25:04.739081 10106 net.cpp:141] Setting up pool2
I1113 06:25:04.739091 10106 net.cpp:148] Top shape: 64 64 8 8 (262144)
I1113 06:25:04.739096 10106 net.cpp:156] Memory required for data: 47972608
I1113 06:25:04.739102 10106 layer_factory.hpp:77] Creating layer conv3
I1113 06:25:04.739117 10106 net.cpp:91] Creating Layer conv3
I1113 06:25:04.739123 10106 net.cpp:425] conv3 <- pool2
I1113 06:25:04.739131 10106 net.cpp:399] conv3 -> conv3
I1113 06:25:04.742929 10106 net.cpp:141] Setting up conv3
I1113 06:25:04.742945 10106 net.cpp:148] Top shape: 64 64 8 8 (262144)
I1113 06:25:04.742951 10106 net.cpp:156] Memory required for data: 49021184
I1113 06:25:04.742965 10106 layer_factory.hpp:77] Creating layer relu3
I1113 06:25:04.742975 10106 net.cpp:91] Creating Layer relu3
I1113 06:25:04.742981 10106 net.cpp:425] relu3 <- conv3
I1113 06:25:04.742990 10106 net.cpp:386] relu3 -> conv3 (in-place)
I1113 06:25:04.743221 10106 net.cpp:141] Setting up relu3
I1113 06:25:04.743237 10106 net.cpp:148] Top shape: 64 64 8 8 (262144)
I1113 06:25:04.743243 10106 net.cpp:156] Memory required for data: 50069760
I1113 06:25:04.743249 10106 layer_factory.hpp:77] Creating layer pool3
I1113 06:25:04.743257 10106 net.cpp:91] Creating Layer pool3
I1113 06:25:04.743263 10106 net.cpp:425] pool3 <- conv3
I1113 06:25:04.743270 10106 net.cpp:399] pool3 -> pool3
I1113 06:25:04.743314 10106 net.cpp:141] Setting up pool3
I1113 06:25:04.743324 10106 net.cpp:148] Top shape: 64 64 4 4 (65536)
I1113 06:25:04.743357 10106 net.cpp:156] Memory required for data: 50331904
I1113 06:25:04.743365 10106 layer_factory.hpp:77] Creating layer conv4
I1113 06:25:04.743377 10106 net.cpp:91] Creating Layer conv4
I1113 06:25:04.743383 10106 net.cpp:425] conv4 <- pool3
I1113 06:25:04.743394 10106 net.cpp:399] conv4 -> conv4
I1113 06:25:04.750807 10106 net.cpp:141] Setting up conv4
I1113 06:25:04.750826 10106 net.cpp:148] Top shape: 64 128 4 4 (131072)
I1113 06:25:04.750833 10106 net.cpp:156] Memory required for data: 50856192
I1113 06:25:04.750843 10106 layer_factory.hpp:77] Creating layer relu4
I1113 06:25:04.750850 10106 net.cpp:91] Creating Layer relu4
I1113 06:25:04.750856 10106 net.cpp:425] relu4 <- conv4
I1113 06:25:04.750864 10106 net.cpp:386] relu4 -> conv4 (in-place)
I1113 06:25:04.751004 10106 net.cpp:141] Setting up relu4
I1113 06:25:04.751018 10106 net.cpp:148] Top shape: 64 128 4 4 (131072)
I1113 06:25:04.751024 10106 net.cpp:156] Memory required for data: 51380480
I1113 06:25:04.751029 10106 layer_factory.hpp:77] Creating layer pool4
I1113 06:25:04.751039 10106 net.cpp:91] Creating Layer pool4
I1113 06:25:04.751045 10106 net.cpp:425] pool4 <- conv4
I1113 06:25:04.751052 10106 net.cpp:399] pool4 -> pool4
I1113 06:25:04.751096 10106 net.cpp:141] Setting up pool4
I1113 06:25:04.751106 10106 net.cpp:148] Top shape: 64 128 2 2 (32768)
I1113 06:25:04.751111 10106 net.cpp:156] Memory required for data: 51511552
I1113 06:25:04.751117 10106 layer_factory.hpp:77] Creating layer ip1
I1113 06:25:04.751127 10106 net.cpp:91] Creating Layer ip1
I1113 06:25:04.751132 10106 net.cpp:425] ip1 <- pool4
I1113 06:25:04.751142 10106 net.cpp:399] ip1 -> ip1
I1113 06:25:04.753711 10106 net.cpp:141] Setting up ip1
I1113 06:25:04.753727 10106 net.cpp:148] Top shape: 64 128 (8192)
I1113 06:25:04.753733 10106 net.cpp:156] Memory required for data: 51544320
I1113 06:25:04.753744 10106 layer_factory.hpp:77] Creating layer ip2
I1113 06:25:04.753754 10106 net.cpp:91] Creating Layer ip2
I1113 06:25:04.753760 10106 net.cpp:425] ip2 <- ip1
I1113 06:25:04.753769 10106 net.cpp:399] ip2 -> ip2
I1113 06:25:04.753904 10106 net.cpp:141] Setting up ip2
I1113 06:25:04.753916 10106 net.cpp:148] Top shape: 64 10 (640)
I1113 06:25:04.753921 10106 net.cpp:156] Memory required for data: 51546880
I1113 06:25:04.753928 10106 layer_factory.hpp:77] Creating layer loss
I1113 06:25:04.753939 10106 net.cpp:91] Creating Layer loss
I1113 06:25:04.753945 10106 net.cpp:425] loss <- ip2
I1113 06:25:04.753952 10106 net.cpp:425] loss <- label
I1113 06:25:04.753958 10106 net.cpp:399] loss -> loss
I1113 06:25:04.753968 10106 layer_factory.hpp:77] Creating layer loss
…
I1113 06:25:04.754429 10106 net.cpp:274] Network initialization done.
I1113 06:25:04.755064 10106 solver.cpp:181] Creating test net (#0) specified by test_net file: /home/ubuntu/results/bohb/smallcnn/trial200/arm29/network_val.prototxt
I1113 06:25:04.755286 10106 net.cpp:49] Initializing net from parameters: 
state {
  phase: TEST
}
layer {
  name: "data"
  type: "Data"
  top: "data"
  top: "label"
  transform_param {
    mean_file: "/mnt/data/cifar10_mean/mean.binaryproto"
  }
  data_param {
    source: "/mnt/data/cifar10_mean/cifar10_evenval_lmdb"
    batch_size: 64
    backend: LMDB
  }
}
layer {
  name: "conv1"
  type: "Convolution"
  bottom: "data"
  top: "conv1"
  param {
    lr_mult: 1
    decay_mult: 0.00031418545
  }
  param {
    lr_mult: 2
    decay_mult: 0
  }
  convolution_param {
    num_output: 64
    pad: 2
    kernel_size: 5
    stride: 1
    weight_filler {
      type: "gaussian"
      std: 0.023403089
    }
    bias_filler {
      type: "constant"
    }
  }
}
layer {
  name: "relu1"
  type: "ReLU"
  bottom: "conv1"
  top: "conv1"
}
layer {
  name: "pool1"
  type: "Pooling"
  bottom: "conv1"
  top: "pool1"
  pooling_param {
    pool: MAX
    kernel_size: 3
    stride: 2
  }
}
layer {
  name: "conv2"
  type: "Convolution"
  bottom: "pool1"
  top: "conv2"
  param {
    lr_mult: 1
    decay_mult: 0.00031418545
  }
  param {
    lr_mult: 2
    decay_mult: 0
  }
  convolution_param {
    num_output: 64
    pad: 2
    kernel_size: 5
    stride: 1
    weight_filler {
      type: "gaussian"
      std: 0.023403089
    }
    bias_filler {
      type: "constant"
    }
  }
}
layer {
  name: "relu2"
  type: "ReLU"
  bottom: "conv2"
  top: "conv2"
}
layer {
  name: "pool2"
  type: "Pooling"
  bottom: "conv2"
  top: "pool2"
  pooling_param {
    pool: MAX
    kernel_size: 3
    stride: 2
  }
}
layer {
  name: "conv3"
  type: "Convolution"
  bottom: "pool2"
  top: "conv3"
  param {
    lr_mult: 1
    decay_mult: 0.00031418545
  }
  param {
    lr_mult: 2
    decay_mult: 0
  }
  convolution_param {
    num_output: 64
    pad: 2
    kernel_size: 5
    stride: 1
    weight_filler {
      type: "gaussian"
      std: 0.023403089
    }
    bias_filler {
      type: "constant"
    }
  }
}
layer {
  name: "relu3"
  type: "ReLU"
  bottom: "conv3"
  top: "conv3"
}
layer {
  name: "pool3"
  type: "Pooling"
  bottom: "conv3"
  top: "pool3"
  pooling_param {
    pool: MAX
    kernel_size: 3
    stride: 2
  }
}
layer {
  name: "conv4"
  type: "Convolution"
  bottom: "pool3"
  top: "conv4"
  param {
    lr_mult: 1
    decay_mult: 0.00031418545
  }
  param {
    lr_mult: 2
    decay_mult: 0
  }
  convolution_param {
    num_output: 128
    pad: 2
    kernel_size: 5
    stride: 1
    weight_filler {
      type: "gaussian"
      std: 0.023403089
    }
    bias_filler {
      type: "constant"
    }
  }
}
layer {
  name: "relu4"
  type: "ReLU"
  bottom: "conv4"
  top: "conv4"
}
layer {
  name: "pool4"
  type: "Pooling"
  bottom: "conv4"
  top: "pool4"
  pooling_param {
    pool: MAX
    kernel_size: 3
    stride: 2
  }
}
layer {
  name: "ip1"
  type: "InnerProduct"
  bottom: "pool4"
  top: "ip1"
  param {
    lr_mult: 1
    decay_mult: 0.0093304776
  }
  param {
    lr_mult: 2
    decay_mult: 0
  }
  inner_product_param {
    num_output: 128
    weight_filler {
      type: "gaussian"
      std: 0.060898535
    }
    bias_filler {
      type: "constant"
    }
  }
}
layer {
  name: "ip2"
  type: "InnerProduct"
  bottom: "ip1"
  top: "ip2"
  param {
    lr_mult: 1
    decay_mult: 1.445919
  }
  param {
    lr_mult: 2
    decay_mult: 0
  }
  inner_product_param {
    num_output: 10
    weight_filler {
      type: "gaussian"
      std: 0.0089212693
    }
    bias_filler {
      type: "constant"
    }
  }
}
layer {
  name: "loss"
  type: "SoftmaxWithLoss"
  bottom: "ip2"
  bottom: "label"
  top: "loss"
}
layer {
  name: "acc"
  type: "Accuracy"
  bottom: "ip2"
  bottom: "label"
  top: "acc"
}
I1113 06:25:04.755396 10106 layer_factory.hpp:77] Creating layer data
I1113 06:25:04.755492 10106 net.cpp:91] Creating Layer data
I1113 06:25:04.755506 10106 net.cpp:399] data -> data
I1113 06:25:04.755517 10106 net.cpp:399] data -> label
I1113 06:25:04.755527 10106 data_transformer.cpp:25] Loading mean file from: /mnt/data/cifar10_mean/mean.binaryproto
I1113 06:25:04.756115 10109 db_lmdb.cpp:38] Opened lmdb /mnt/data/cifar10_mean/cifar10_evenval_lmdb
I1113 06:25:04.756230 10106 data_layer.cpp:41] output data size: 64,3,32,32
I1113 06:25:04.758517 10106 net.cpp:141] Setting up data
I1113 06:25:04.758533 10106 net.cpp:148] Top shape: 64 3 32 32 (196608)
I1113 06:25:04.758543 10106 net.cpp:148] Top shape: 64 (64)
I1113 06:25:04.758549 10106 net.cpp:156] Memory required for data: 786688
I1113 06:25:04.758555 10106 layer_factory.hpp:77] Creating layer label_data_1_split
I1113 06:25:04.758564 10106 net.cpp:91] Creating Layer label_data_1_split
I1113 06:25:04.758570 10106 net.cpp:425] label_data_1_split <- label
I1113 06:25:04.758579 10106 net.cpp:399] label_data_1_split -> label_data_1_split_0
I1113 06:25:04.758589 10106 net.cpp:399] label_data_1_split -> label_data_1_split_1
I1113 06:25:04.758635 10106 net.cpp:141] Setting up label_data_1_split
I1113 06:25:04.758646 10106 net.cpp:148] Top shape: 64 (64)
I1113 06:25:04.758652 10106 net.cpp:148] Top shape: 64 (64)
I1113 06:25:04.758657 10106 net.cpp:156] Memory required for data: 787200
I1113 06:25:04.758662 10106 layer_factory.hpp:77] Creating layer conv1
I1113 06:25:04.758678 10106 net.cpp:91] Creating Layer conv1
I1113 06:25:04.758684 10106 net.cpp:425] conv1 <- data
I1113 06:25:04.758692 10106 net.cpp:399] conv1 -> conv1
I1113 06:25:04.760030 10106 net.cpp:141] Setting up conv1
I1113 06:25:04.760048 10106 net.cpp:148] Top shape: 64 64 32 32 (4194304)
I1113 06:25:04.760054 10106 net.cpp:156] Memory required for data: 17564416
I1113 06:25:04.760067 10106 layer_factory.hpp:77] Creating layer relu1
I1113 06:25:04.760076 10106 net.cpp:91] Creating Layer relu1
I1113 06:25:04.760082 10106 net.cpp:425] relu1 <- conv1
I1113 06:25:04.760090 10106 net.cpp:386] relu1 -> conv1 (in-place)
I1113 06:25:04.760241 10106 net.cpp:141] Setting up relu1
I1113 06:25:04.760254 10106 net.cpp:148] Top shape: 64 64 32 32 (4194304)
I1113 06:25:04.760259 10106 net.cpp:156] Memory required for data: 34341632
I1113 06:25:04.760265 10106 layer_factory.hpp:77] Creating layer pool1
I1113 06:25:04.760274 10106 net.cpp:91] Creating Layer pool1
I1113 06:25:04.760280 10106 net.cpp:425] pool1 <- conv1
I1113 06:25:04.760289 10106 net.cpp:399] pool1 -> pool1
I1113 06:25:04.760334 10106 net.cpp:141] Setting up pool1
I1113 06:25:04.760345 10106 net.cpp:148] Top shape: 64 64 16 16 (1048576)
I1113 06:25:04.760350 10106 net.cpp:156] Memory required for data: 38535936
I1113 06:25:04.760355 10106 layer_factory.hpp:77] Creating layer conv2
I1113 06:25:04.760370 10106 net.cpp:91] Creating Layer conv2
I1113 06:25:04.760376 10106 net.cpp:425] conv2 <- pool1
I1113 06:25:04.760385 10106 net.cpp:399] conv2 -> conv2
I1113 06:25:04.764827 10106 net.cpp:141] Setting up conv2
I1113 06:25:04.764844 10106 net.cpp:148] Top shape: 64 64 16 16 (1048576)
I1113 06:25:04.764850 10106 net.cpp:156] Memory required for data: 42730240
I1113 06:25:04.764863 10106 layer_factory.hpp:77] Creating layer relu2
I1113 06:25:04.764870 10106 net.cpp:91] Creating Layer relu2
I1113 06:25:04.764876 10106 net.cpp:425] relu2 <- conv2
I1113 06:25:04.764883 10106 net.cpp:386] relu2 -> conv2 (in-place)
I1113 06:25:04.765126 10106 net.cpp:141] Setting up relu2
I1113 06:25:04.765141 10106 net.cpp:148] Top shape: 64 64 16 16 (1048576)
I1113 06:25:04.765147 10106 net.cpp:156] Memory required for data: 46924544
I1113 06:25:04.765153 10106 layer_factory.hpp:77] Creating layer pool2
I1113 06:25:04.765164 10106 net.cpp:91] Creating Layer pool2
I1113 06:25:04.765169 10106 net.cpp:425] pool2 <- conv2
I1113 06:25:04.765177 10106 net.cpp:399] pool2 -> pool2
I1113 06:25:04.765218 10106 net.cpp:141] Setting up pool2
I1113 06:25:04.765229 10106 net.cpp:148] Top shape: 64 64 8 8 (262144)
I1113 06:25:04.765234 10106 net.cpp:156] Memory required for data: 47973120
I1113 06:25:04.765245 10106 layer_factory.hpp:77] Creating layer conv3
I1113 06:25:04.765264 10106 net.cpp:91] Creating Layer conv3
I1113 06:25:04.765269 10106 net.cpp:425] conv3 <- pool2
I1113 06:25:04.765277 10106 net.cpp:399] conv3 -> conv3
I1113 06:25:04.769179 10106 net.cpp:141] Setting up conv3
I1113 06:25:04.769196 10106 net.cpp:148] Top shape: 64 64 8 8 (262144)
I1113 06:25:04.769202 10106 net.cpp:156] Memory required for data: 49021696
I1113 06:25:04.769217 10106 layer_factory.hpp:77] Creating layer relu3
I1113 06:25:04.769225 10106 net.cpp:91] Creating Layer relu3
I1113 06:25:04.769232 10106 net.cpp:425] relu3 <- conv3
I1113 06:25:04.769238 10106 net.cpp:386] relu3 -> conv3 (in-place)
I1113 06:25:04.769493 10106 net.cpp:141] Setting up relu3
I1113 06:25:04.769507 10106 net.cpp:148] Top shape: 64 64 8 8 (262144)
I1113 06:25:04.769513 10106 net.cpp:156] Memory required for data: 50070272
I1113 06:25:04.769520 10106 layer_factory.hpp:77] Creating layer pool3
I1113 06:25:04.769527 10106 net.cpp:91] Creating Layer pool3
I1113 06:25:04.769533 10106 net.cpp:425] pool3 <- conv3
I1113 06:25:04.769542 10106 net.cpp:399] pool3 -> pool3
I1113 06:25:04.769588 10106 net.cpp:141] Setting up pool3
I1113 06:25:04.769599 10106 net.cpp:148] Top shape: 64 64 4 4 (65536)
I1113 06:25:04.769605 10106 net.cpp:156] Memory required for data: 50332416
I1113 06:25:04.769610 10106 layer_factory.hpp:77] Creating layer conv4
I1113 06:25:04.769625 10106 net.cpp:91] Creating Layer conv4
I1113 06:25:04.769631 10106 net.cpp:425] conv4 <- pool3
I1113 06:25:04.769639 10106 net.cpp:399] conv4 -> conv4
I1113 06:25:04.777113 10106 net.cpp:141] Setting up conv4
I1113 06:25:04.777132 10106 net.cpp:148] Top shape: 64 128 4 4 (131072)
I1113 06:25:04.777137 10106 net.cpp:156] Memory required for data: 50856704
I1113 06:25:04.777146 10106 layer_factory.hpp:77] Creating layer relu4
I1113 06:25:04.777158 10106 net.cpp:91] Creating Layer relu4
I1113 06:25:04.777163 10106 net.cpp:425] relu4 <- conv4
I1113 06:25:04.777170 10106 net.cpp:386] relu4 -> conv4 (in-place)
I1113 06:25:04.777318 10106 net.cpp:141] Setting up relu4
I1113 06:25:04.777333 10106 net.cpp:148] Top shape: 64 128 4 4 (131072)
I1113 06:25:04.777338 10106 net.cpp:156] Memory required for data: 51380992
I1113 06:25:04.777343 10106 layer_factory.hpp:77] Creating layer pool4
I1113 06:25:04.777351 10106 net.cpp:91] Creating Layer pool4
I1113 06:25:04.777356 10106 net.cpp:425] pool4 <- conv4
I1113 06:25:04.777365 10106 net.cpp:399] pool4 -> pool4
I1113 06:25:04.777413 10106 net.cpp:141] Setting up pool4
I1113 06:25:04.777423 10106 net.cpp:148] Top shape: 64 128 2 2 (32768)
I1113 06:25:04.777429 10106 net.cpp:156] Memory required for data: 51512064
I1113 06:25:04.777434 10106 layer_factory.hpp:77] Creating layer ip1
I1113 06:25:04.777443 10106 net.cpp:91] Creating Layer ip1
I1113 06:25:04.777448 10106 net.cpp:425] ip1 <- pool4
I1113 06:25:04.777458 10106 net.cpp:399] ip1 -> ip1
I1113 06:25:04.779531 10106 net.cpp:141] Setting up ip1
I1113 06:25:04.779548 10106 net.cpp:148] Top shape: 64 128 (8192)
I1113 06:25:04.779553 10106 net.cpp:156] Memory required for data: 51544832
I1113 06:25:04.779565 10106 layer_factory.hpp:77] Creating layer ip2
I1113 06:25:04.779574 10106 net.cpp:91] Creating Layer ip2
I1113 06:25:04.779580 10106 net.cpp:425] ip2 <- ip1
I1113 06:25:04.779589 10106 net.cpp:399] ip2 -> ip2
I1113 06:25:04.779728 10106 net.cpp:141] Setting up ip2
I1113 06:25:04.779741 10106 net.cpp:148] Top shape: 64 10 (640)
I1113 06:25:04.779745 10106 net.cpp:156] Memory required for data: 51547392
I1113 06:25:04.779753 10106 layer_factory.hpp:77] Creating layer ip2_ip2_0_split
I1113 06:25:04.779765 10106 net.cpp:91] Creating Layer ip2_ip2_0_split
I1113 06:25:04.779770 10106 net.cpp:425] ip2_ip2_0_split <- ip2
I1113 06:25:04.779778 10106 net.cpp:399] ip2_ip2_0_split -> ip2_ip2_0_split_0
I1113 06:25:04.779786 10106 net.cpp:399] ip2_ip2_0_split -> ip2_ip2_0_split_1
I1113 06:25:04.779824 10106 net.cpp:141] Setting up ip2_ip2_0_split
I1113 06:25:04.779835 10106 net.cpp:148] Top shape: 64 10 (640)
I1113 06:25:04.779855 10106 net.cpp:148] Top shape: 64 10 (640)
I1113 06:25:04.779861 10106 net.cpp:156] Memory required for data: 51552512
I1113 06:25:04.779867 10106 layer_factory.hpp:77] Creating layer loss
I1113 06:25:04.779877 10106 net.cpp:91] Creating Layer loss
I1113 06:25:04.779883 10106 net.cpp:425] loss <- ip2_ip2_0_split_0
I1113 06:25:04.779889 10106 net.cpp:425] loss <- label_data_1_split_0
I1113 06:25:04.779896 10106 net.cpp:399] loss -> loss
…
random_seed: 230
iter_size: 1
type: "SGD"
I1113 06:25:20.076233 10115 solver.cpp:81] Creating training net from train_net file: /home/ubuntu/results/bohb/smallcnn/trial200/arm30/network_train.prototxt
I1113 06:25:20.076599 10115 net.cpp:49] Initializing net from parameters: 
state {
  phase: TRAIN
}
layer {
  name: "data"
  type: "Data"
  top: "data"
  top: "label"
  transform_param {
    mean_file: "/mnt/data/cifar10_mean/mean.binaryproto"
  }
  data_param {
    source: "/mnt/data/cifar10_mean/cifar10_eventrain_lmdb"
    batch_size: 64
    backend: LMDB
  }
}
layer {
  name: "conv1"
  type: "Convolution"
  bottom: "data"
  top: "conv1"
  param {
    lr_mult: 1
    decay_mult: 0.05070433
  }
  param {
    lr_mult: 2
    decay_mult: 0
  }
  convolution_param {
    num_output: 32
    pad: 2
    kernel_size: 5
    stride: 1
    weight_filler {
      type: "gaussian"
      std: 0.00022852057
    }
    bias_filler {
      type: "constant"
    }
  }
}
layer {
  name: "relu1"
  type: "ReLU"
  bottom: "conv1"
  top: "conv1"
}
layer {
  name: "pool1"
  type: "Pooling"
  bottom: "conv1"
  top: "pool1"
  pooling_param {
    pool: MAX
    kernel_size: 3
    stride: 2
  }
}
layer {
  name: "conv2"
  type: "Convolution"
  bottom: "pool1"
  top: "conv2"
  param {
    lr_mult: 1
    decay_mult: 0.05070433
  }
  param {
    lr_mult: 2
    decay_mult: 0
  }
  convolution_param {
    num_output: 64
    pad: 2
    kernel_size: 5
    stride: 1
    weight_filler {
      type: "gaussian"
      std: 0.00022852057
    }
    bias_filler {
      type: "constant"
    }
  }
}
layer {
  name: "relu2"
  type: "ReLU"
  bottom: "conv2"
  top: "conv2"
}
layer {
  name: "pool2"
  type: "Pooling"
  bottom: "conv2"
  top: "pool2"
  pooling_param {
    pool: MAX
    kernel_size: 3
    stride: 2
  }
}
layer {
  name: "ip1"
  type: "InnerProduct"
  bottom: "pool2"
  top: "ip1"
  param {
    lr_mult: 1
    decay_mult: 0.0030601171
  }
  param {
    lr_mult: 2
    decay_mult: 0
  }
  inner_product_param {
    num_output: 64
    weight_filler {
      type: "gaussian"
      std: 0.24064669
    }
    bias_filler {
      type: "constant"
    }
  }
}
layer {
  name: "ip2"
  type: "InnerProduct"
  bottom: "ip1"
  top: "ip2"
  param {
    lr_mult: 1
    decay_mult: 82.13678
  }
  param {
    lr_mult: 2
    decay_mult: 0
  }
  inner_product_param {
    num_output: 10
    weight_filler {
      type: "gaussian"
      std: 0.011007922
    }
    bias_filler {
      type: "constant"
    }
  }
}
layer {
  name: "loss"
  type: "SoftmaxWithLoss"
  bottom: "ip2"
  bottom: "label"
  top: "loss"
}
I1113 06:25:20.076653 10115 layer_factory.hpp:77] Creating layer data
I1113 06:25:20.076730 10115 net.cpp:91] Creating Layer data
I1113 06:25:20.076742 10115 net.cpp:399] data -> data
I1113 06:25:20.076756 10115 net.cpp:399] data -> label
I1113 06:25:20.076767 10115 data_transformer.cpp:25] Loading mean file from: /mnt/data/cifar10_mean/mean.binaryproto
I1113 06:25:20.077772 10116 db_lmdb.cpp:38] Opened lmdb /mnt/data/cifar10_mean/cifar10_eventrain_lmdb
I1113 06:25:20.077888 10115 data_layer.cpp:41] output data size: 64,3,32,32
I1113 06:25:20.080173 10115 net.cpp:141] Setting up data
I1113 06:25:20.080193 10115 net.cpp:148] Top shape: 64 3 32 32 (196608)
I1113 06:25:20.080200 10115 net.cpp:148] Top shape: 64 (64)
I1113 06:25:20.080206 10115 net.cpp:156] Memory required for data: 786688
I1113 06:25:20.080214 10115 layer_factory.hpp:77] Creating layer conv1
I1113 06:25:20.080227 10115 net.cpp:91] Creating Layer conv1
I1113 06:25:20.080233 10115 net.cpp:425] conv1 <- data
I1113 06:25:20.080242 10115 net.cpp:399] conv1 -> conv1
I1113 06:25:20.081250 10115 net.cpp:141] Setting up conv1
I1113 06:25:20.081266 10115 net.cpp:148] Top shape: 64 32 32 32 (2097152)
I1113 06:25:20.081272 10115 net.cpp:156] Memory required for data: 9175296
I1113 06:25:20.081290 10115 layer_factory.hpp:77] Creating layer relu1
I1113 06:25:20.081307 10115 net.cpp:91] Creating Layer relu1
I1113 06:25:20.081320 10115 net.cpp:425] relu1 <- conv1
I1113 06:25:20.081332 10115 net.cpp:386] relu1 -> conv1 (in-place)
I1113 06:25:20.081523 10115 net.cpp:141] Setting up relu1
I1113 06:25:20.081538 10115 net.cpp:148] Top shape: 64 32 32 32 (2097152)
I1113 06:25:20.081544 10115 net.cpp:156] Memory required for data: 17563904
I1113 06:25:20.081552 10115 layer_factory.hpp:77] Creating layer pool1
I1113 06:25:20.081559 10115 net.cpp:91] Creating Layer pool1
I1113 06:25:20.081565 10115 net.cpp:425] pool1 <- conv1
I1113 06:25:20.081573 10115 net.cpp:399] pool1 -> pool1
I1113 06:25:20.081614 10115 net.cpp:141] Setting up pool1
I1113 06:25:20.081624 10115 net.cpp:148] Top shape: 64 32 16 16 (524288)
I1113 06:25:20.081630 10115 net.cpp:156] Memory required for data: 19661056
I1113 06:25:20.081635 10115 layer_factory.hpp:77] Creating layer conv2
I1113 06:25:20.081648 10115 net.cpp:91] Creating Layer conv2
I1113 06:25:20.081655 10115 net.cpp:425] conv2 <- pool1
I1113 06:25:20.081663 10115 net.cpp:399] conv2 -> conv2
I1113 06:25:20.084376 10115 net.cpp:141] Setting up conv2
I1113 06:25:20.084395 10115 net.cpp:148] Top shape: 64 64 16 16 (1048576)
I1113 06:25:20.084401 10115 net.cpp:156] Memory required for data: 23855360
I1113 06:25:20.084421 10115 layer_factory.hpp:77] Creating layer relu2
I1113 06:25:20.084431 10115 net.cpp:91] Creating Layer relu2
I1113 06:25:20.084437 10115 net.cpp:425] relu2 <- conv2
I1113 06:25:20.084444 10115 net.cpp:386] relu2 -> conv2 (in-place)
I1113 06:25:20.084702 10115 net.cpp:141] Setting up relu2
I1113 06:25:20.084717 10115 net.cpp:148] Top shape: 64 64 16 16 (1048576)
I1113 06:25:20.084723 10115 net.cpp:156] Memory required for data: 28049664
I1113 06:25:20.084730 10115 layer_factory.hpp:77] Creating layer pool2
I1113 06:25:20.084739 10115 net.cpp:91] Creating Layer pool2
I1113 06:25:20.084745 10115 net.cpp:425] pool2 <- conv2
I1113 06:25:20.084754 10115 net.cpp:399] pool2 -> pool2
I1113 06:25:20.084794 10115 net.cpp:141] Setting up pool2
I1113 06:25:20.084805 10115 net.cpp:148] Top shape: 64 64 8 8 (262144)
I1113 06:25:20.084810 10115 net.cpp:156] Memory required for data: 29098240
I1113 06:25:20.084815 10115 layer_factory.hpp:77] Creating layer ip1
I1113 06:25:20.084825 10115 net.cpp:91] Creating Layer ip1
I1113 06:25:20.084830 10115 net.cpp:425] ip1 <- pool2
I1113 06:25:20.084838 10115 net.cpp:399] ip1 -> ip1
I1113 06:25:20.093257 10115 net.cpp:141] Setting up ip1
I1113 06:25:20.093274 10115 net.cpp:148] Top shape: 64 64 (4096)
I1113 06:25:20.093281 10115 net.cpp:156] Memory required for data: 29114624
I1113 06:25:20.093292 10115 layer_factory.hpp:77] Creating layer ip2
I1113 06:25:20.093302 10115 net.cpp:91] Creating Layer ip2
I1113 06:25:20.093308 10115 net.cpp:425] ip2 <- ip1
I1113 06:25:20.093317 10115 net.cpp:399] ip2 -> ip2
I1113 06:25:20.093423 10115 net.cpp:141] Setting up ip2
I1113 06:25:20.093435 10115 net.cpp:148] Top shape: 64 10 (640)
I1113 06:25:20.093441 10115 net.cpp:156] Memory required for data: 29117184
I1113 06:25:20.093448 10115 layer_factory.hpp:77] Creating layer loss
I1113 06:25:20.093456 10115 net.cpp:91] Creating Layer loss
I1113 06:25:20.093462 10115 net.cpp:425] loss <- ip2
I1113 06:25:20.093468 10115 net.cpp:425] loss <- label
I1113 06:25:20.093475 10115 net.cpp:399] loss -> loss
I1113 06:25:20.093487 10115 layer_factory.hpp:77] Creating layer loss
…
I1113 06:25:20.093791 10115 net.cpp:274] Network initialization done.
I1113 06:25:20.094249 10115 solver.cpp:181] Creating test net (#0) specified by test_net file: /home/ubuntu/results/bohb/smallcnn/trial200/arm30/network_val.prototxt
I1113 06:25:20.094405 10115 net.cpp:49] Initializing net from parameters: 
state {
  phase: TEST
}
layer {
  name: "data"
  type: "Data"
  top: "data"
  top: "label"
  transform_param {
    mean_file: "/mnt/data/cifar10_mean/mean.binaryproto"
  }
  data_param {
    source: "/mnt/data/cifar10_mean/cifar10_evenval_lmdb"
    batch_size: 64
    backend: LMDB
  }
}
layer {
  name: "conv1"
  type: "Convolution"
  bottom: "data"
  top: "conv1"
  param {
    lr_mult: 1
    decay_mult: 0.05070433
  }
  param {
    lr_mult: 2
    decay_mult: 0
  }
  convolution_param {
    num_output: 32
    pad: 2
    kernel_size: 5
    stride: 1
    weight_filler {
      type: "gaussian"
      std: 0.00022852057
    }
    bias_filler {
      type: "constant"
    }
  }
}
layer {
  name: "relu1"
  type: "ReLU"
  bottom: "conv1"
  top: "conv1"
}
layer {
  name: "pool1"
  type: "Pooling"
  bottom: "conv1"
  top: "pool1"
  pooling_param {
    pool: MAX
    kernel_size: 3
    stride: 2
  }
}
layer {
  name: "conv2"
  type: "Convolution"
  bottom: "pool1"
  top: "conv2"
  param {
    lr_mult: 1
    decay_mult: 0.05070433
  }
  param {
    lr_mult: 2
    decay_mult: 0
  }
  convolution_param {
    num_output: 64
    pad: 2
    kernel_size: 5
    stride: 1
    weight_filler {
      type: "gaussian"
      std: 0.00022852057
    }
    bias_filler {
      type: "constant"
    }
  }
}
layer {
  name: "relu2"
  type: "ReLU"
  bottom: "conv2"
  top: "conv2"
}
layer {
  name: "pool2"
  type: "Pooling"
  bottom: "conv2"
  top: "pool2"
  pooling_param {
    pool: MAX
    kernel_size: 3
    stride: 2
  }
}
layer {
  name: "ip1"
  type: "InnerProduct"
  bottom: "pool2"
  top: "ip1"
  param {
    lr_mult: 1
    decay_mult: 0.0030601171
  }
  param {
    lr_mult: 2
    decay_mult: 0
  }
  inner_product_param {
    num_output: 64
    weight_filler {
      type: "gaussian"
      std: 0.24064669
    }
    bias_filler {
      type: "constant"
    }
  }
}
layer {
  name: "ip2"
  type: "InnerProduct"
  bottom: "ip1"
  top: "ip2"
  param {
    lr_mult: 1
    decay_mult: 82.13678
  }
  param {
    lr_mult: 2
    decay_mult: 0
  }
  inner_product_param {
    num_output: 10
    weight_filler {
      type: "gaussian"
      std: 0.011007922
    }
    bias_filler {
      type: "constant"
    }
  }
}
layer {
  name: "loss"
  type: "SoftmaxWithLoss"
  bottom: "ip2"
  bottom: "label"
  top: "loss"
}
layer {
  name: "acc"
  type: "Accuracy"
  bottom: "ip2"
  bottom: "label"
  top: "acc"
}
I1113 06:25:20.094475 10115 layer_factory.hpp:77] Creating layer data
I1113 06:25:20.094548 10115 net.cpp:91] Creating Layer data
I1113 06:25:20.094559 10115 net.cpp:399] data -> data
I1113 06:25:20.094570 10115 net.cpp:399] data -> label
I1113 06:25:20.094580 10115 data_transformer.cpp:25] Loading mean file from: /mnt/data/cifar10_mean/mean.binaryproto
I1113 06:25:20.095167 10118 db_lmdb.cpp:38] Opened lmdb /mnt/data/cifar10_mean/cifar10_evenval_lmdb
I1113 06:25:20.095269 10115 data_layer.cpp:41] output data size: 64,3,32,32
I1113 06:25:20.097550 10115 net.cpp:141] Setting up data
I1113 06:25:20.097568 10115 net.cpp:148] Top shape: 64 3 32 32 (196608)
I1113 06:25:20.097576 10115 net.cpp:148] Top shape: 64 (64)
I1113 06:25:20.097581 10115 net.cpp:156] Memory required for data: 786688
I1113 06:25:20.097587 10115 layer_factory.hpp:77] Creating layer label_data_1_split
I1113 06:25:20.097597 10115 net.cpp:91] Creating Layer label_data_1_split
I1113 06:25:20.097604 10115 net.cpp:425] label_data_1_split <- label
I1113 06:25:20.097611 10115 net.cpp:399] label_data_1_split -> label_data_1_split_0
I1113 06:25:20.097620 10115 net.cpp:399] label_data_1_split -> label_data_1_split_1
I1113 06:25:20.097663 10115 net.cpp:141] Setting up label_data_1_split
I1113 06:25:20.097673 10115 net.cpp:148] Top shape: 64 (64)
I1113 06:25:20.097679 10115 net.cpp:148] Top shape: 64 (64)
I1113 06:25:20.097684 10115 net.cpp:156] Memory required for data: 787200
I1113 06:25:20.097690 10115 layer_factory.hpp:77] Creating layer conv1
I1113 06:25:20.097702 10115 net.cpp:91] Creating Layer conv1
I1113 06:25:20.097708 10115 net.cpp:425] conv1 <- data
I1113 06:25:20.097718 10115 net.cpp:399] conv1 -> conv1
I1113 06:25:20.098748 10115 net.cpp:141] Setting up conv1
I1113 06:25:20.098767 10115 net.cpp:148] Top shape: 64 32 32 32 (2097152)
I1113 06:25:20.098773 10115 net.cpp:156] Memory required for data: 9175808
I1113 06:25:20.098786 10115 layer_factory.hpp:77] Creating layer relu1
I1113 06:25:20.098795 10115 net.cpp:91] Creating Layer relu1
I1113 06:25:20.098803 10115 net.cpp:425] relu1 <- conv1
I1113 06:25:20.098809 10115 net.cpp:386] relu1 -> conv1 (in-place)
I1113 06:25:20.099035 10115 net.cpp:141] Setting up relu1
I1113 06:25:20.099056 10115 net.cpp:148] Top shape: 64 32 32 32 (2097152)
I1113 06:25:20.099062 10115 net.cpp:156] Memory required for data: 17564416
I1113 06:25:20.099068 10115 layer_factory.hpp:77] Creating layer pool1
I1113 06:25:20.099078 10115 net.cpp:91] Creating Layer pool1
I1113 06:25:20.099084 10115 net.cpp:425] pool1 <- conv1
I1113 06:25:20.099092 10115 net.cpp:399] pool1 -> pool1
I1113 06:25:20.099135 10115 net.cpp:141] Setting up pool1
I1113 06:25:20.099145 10115 net.cpp:148] Top shape: 64 32 16 16 (524288)
I1113 06:25:20.099150 10115 net.cpp:156] Memory required for data: 19661568
I1113 06:25:20.099156 10115 layer_factory.hpp:77] Creating layer conv2
I1113 06:25:20.099167 10115 net.cpp:91] Creating Layer conv2
I1113 06:25:20.099174 10115 net.cpp:425] conv2 <- pool1
I1113 06:25:20.099181 10115 net.cpp:399] conv2 -> conv2
I1113 06:25:20.101423 10115 net.cpp:141] Setting up conv2
I1113 06:25:20.101449 10115 net.cpp:148] Top shape: 64 64 16 16 (1048576)
I1113 06:25:20.101454 10115 net.cpp:156] Memory required for data: 23855872
I1113 06:25:20.101467 10115 layer_factory.hpp:77] Creating layer relu2
I1113 06:25:20.101476 10115 net.cpp:91] Creating Layer relu2
I1113 06:25:20.101482 10115 net.cpp:425] relu2 <- conv2
I1113 06:25:20.101490 10115 net.cpp:386] relu2 -> conv2 (in-place)
I1113 06:25:20.101747 10115 net.cpp:141] Setting up relu2
I1113 06:25:20.101763 10115 net.cpp:148] Top shape: 64 64 16 16 (1048576)
I1113 06:25:20.101768 10115 net.cpp:156] Memory required for data: 28050176
I1113 06:25:20.101774 10115 layer_factory.hpp:77] Creating layer pool2
I1113 06:25:20.101783 10115 net.cpp:91] Creating Layer pool2
I1113 06:25:20.101789 10115 net.cpp:425] pool2 <- conv2
I1113 06:25:20.101797 10115 net.cpp:399] pool2 -> pool2
I1113 06:25:20.101837 10115 net.cpp:141] Setting up pool2
I1113 06:25:20.101848 10115 net.cpp:148] Top shape: 64 64 8 8 (262144)
I1113 06:25:20.101853 10115 net.cpp:156] Memory required for data: 29098752
I1113 06:25:20.101860 10115 layer_factory.hpp:77] Creating layer ip1
I1113 06:25:20.101871 10115 net.cpp:91] Creating Layer ip1
I1113 06:25:20.101876 10115 net.cpp:425] ip1 <- pool2
I1113 06:25:20.101884 10115 net.cpp:399] ip1 -> ip1
I1113 06:25:20.110419 10115 net.cpp:141] Setting up ip1
I1113 06:25:20.110436 10115 net.cpp:148] Top shape: 64 64 (4096)
I1113 06:25:20.110441 10115 net.cpp:156] Memory required for data: 29115136
I1113 06:25:20.110453 10115 layer_factory.hpp:77] Creating layer ip2
I1113 06:25:20.110463 10115 net.cpp:91] Creating Layer ip2
I1113 06:25:20.110471 10115 net.cpp:425] ip2 <- ip1
I1113 06:25:20.110478 10115 net.cpp:399] ip2 -> ip2
I1113 06:25:20.110594 10115 net.cpp:141] Setting up ip2
I1113 06:25:20.110605 10115 net.cpp:148] Top shape: 64 10 (640)
I1113 06:25:20.110610 10115 net.cpp:156] Memory required for data: 29117696
I1113 06:25:20.110618 10115 layer_factory.hpp:77] Creating layer ip2_ip2_0_split
I1113 06:25:20.110626 10115 net.cpp:91] Creating Layer ip2_ip2_0_split
I1113 06:25:20.110632 10115 net.cpp:425] ip2_ip2_0_split <- ip2
I1113 06:25:20.110641 10115 net.cpp:399] ip2_ip2_0_split -> ip2_ip2_0_split_0
I1113 06:25:20.110648 10115 net.cpp:399] ip2_ip2_0_split -> ip2_ip2_0_split_1
I1113 06:25:20.110684 10115 net.cpp:141] Setting up ip2_ip2_0_split
I1113 06:25:20.110693 10115 net.cpp:148] Top shape: 64 10 (640)
I1113 06:25:20.110699 10115 net.cpp:148] Top shape: 64 10 (640)
I1113 06:25:20.110704 10115 net.cpp:156] Memory required for data: 29122816
I1113 06:25:20.110709 10115 layer_factory.hpp:77] Creating layer loss
I1113 06:25:20.110718 10115 net.cpp:91] Creating Layer loss
I1113 06:25:20.110723 10115 net.cpp:425] loss <- ip2_ip2_0_split_0
I1113 06:25:20.110728 10115 net.cpp:425] loss <- label_data_1_split_0
I1113 06:25:20.110735 10115 net.cpp:399] loss -> loss
…
random_seed: 231
iter_size: 1
type: "SGD"
I1113 06:25:26.954205 10123 solver.cpp:81] Creating training net from train_net file: /home/ubuntu/results/bohb/smallcnn/trial200/arm31/network_train.prototxt
I1113 06:25:26.954643 10123 net.cpp:49] Initializing net from parameters: 
state {
  phase: TRAIN
}
layer {
  name: "data"
  type: "Data"
  top: "data"
  top: "label"
  transform_param {
    mean_file: "/mnt/data/cifar10_mean/mean.binaryproto"
  }
  data_param {
    source: "/mnt/data/cifar10_mean/cifar10_eventrain_lmdb"
    batch_size: 512
    backend: LMDB
  }
}
layer {
  name: "conv1"
  type: "Convolution"
  bottom: "data"
  top: "conv1"
  param {
    lr_mult: 1
    decay_mult: 0.034714859
  }
  param {
    lr_mult: 2
    decay_mult: 0
  }
  convolution_param {
    num_output: 64
    pad: 2
    kernel_size: 5
    stride: 1
    weight_filler {
      type: "gaussian"
      std: 0.0059011835
    }
    bias_filler {
      type: "constant"
    }
  }
}
layer {
  name: "relu1"
  type: "ReLU"
  bottom: "conv1"
  top: "conv1"
}
layer {
  name: "pool1"
  type: "Pooling"
  bottom: "conv1"
  top: "pool1"
  pooling_param {
    pool: MAX
    kernel_size: 3
    stride: 2
  }
}
layer {
  name: "conv2"
  type: "Convolution"
  bottom: "pool1"
  top: "conv2"
  param {
    lr_mult: 1
    decay_mult: 0.034714859
  }
  param {
    lr_mult: 2
    decay_mult: 0
  }
  convolution_param {
    num_output: 64
    pad: 2
    kernel_size: 5
    stride: 1
    weight_filler {
      type: "gaussian"
      std: 0.0059011835
    }
    bias_filler {
      type: "constant"
    }
  }
}
layer {
  name: "relu2"
  type: "ReLU"
  bottom: "conv2"
  top: "conv2"
}
layer {
  name: "pool2"
  type: "Pooling"
  bottom: "conv2"
  top: "pool2"
  pooling_param {
    pool: MAX
    kernel_size: 3
    stride: 2
  }
}
layer {
  name: "conv3"
  type: "Convolution"
  bottom: "pool2"
  top: "conv3"
  param {
    lr_mult: 1
    decay_mult: 0.034714859
  }
  param {
    lr_mult: 2
    decay_mult: 0
  }
  convolution_param {
    num_output: 128
    pad: 2
    kernel_size: 5
    stride: 1
    weight_filler {
      type: "gaussian"
      std: 0.0059011835
    }
    bias_filler {
      type: "constant"
    }
  }
}
layer {
  name: "relu3"
  type: "ReLU"
  bottom: "conv3"
  top: "conv3"
}
layer {
  name: "pool3"
  type: "Pooling"
  bottom: "conv3"
  top: "pool3"
  pooling_param {
    pool: MAX
    kernel_size: 3
    stride: 2
  }
}
layer {
  name: "ip1"
  type: "InnerProduct"
  bottom: "pool3"
  top: "ip1"
  param {
    lr_mult: 1
    decay_mult: 0.023458874
  }
  param {
    lr_mult: 2
    decay_mult: 0
  }
  inner_product_param {
    num_output: 128
    weight_filler {
      type: "gaussian"
      std: 0.015949313
    }
    bias_filler {
      type: "constant"
    }
  }
}
layer {
  name: "ip2"
  type: "InnerProduct"
  bottom: "ip1"
  top: "ip2"
  param {
    lr_mult: 1
    decay_mult: 0.015110502
  }
  param {
    lr_mult: 2
    decay_mult: 0
  }
  inner_product_param {
    num_output: 10
    weight_filler {
      type: "gaussian"
      std: 0.20284931
    }
    bias_filler {
      type: "constant"
    }
  }
}
layer {
  name: "loss"
  type: "SoftmaxWithLoss"
  bottom: "ip2"
  bottom: "label"
  top: "loss"
}
I1113 06:25:26.954706 10123 layer_factory.hpp:77] Creating layer data
I1113 06:25:26.955004 10123 net.cpp:91] Creating Layer data
I1113 06:25:26.955018 10123 net.cpp:399] data -> data
I1113 06:25:26.955031 10123 net.cpp:399] data -> label
I1113 06:25:26.955049 10123 data_transformer.cpp:25] Loading mean file from: /mnt/data/cifar10_mean/mean.binaryproto
I1113 06:25:26.956056 10124 db_lmdb.cpp:38] Opened lmdb /mnt/data/cifar10_mean/cifar10_eventrain_lmdb
I1113 06:25:26.956152 10123 data_layer.cpp:41] output data size: 512,3,32,32
I1113 06:25:26.967423 10123 net.cpp:141] Setting up data
I1113 06:25:26.967469 10123 net.cpp:148] Top shape: 512 3 32 32 (1572864)
I1113 06:25:26.967478 10123 net.cpp:148] Top shape: 512 (512)
I1113 06:25:26.967483 10123 net.cpp:156] Memory required for data: 6293504
I1113 06:25:26.967494 10123 layer_factory.hpp:77] Creating layer conv1
I1113 06:25:26.967523 10123 net.cpp:91] Creating Layer conv1
I1113 06:25:26.967530 10123 net.cpp:425] conv1 <- data
I1113 06:25:26.967542 10123 net.cpp:399] conv1 -> conv1
I1113 06:25:26.969194 10123 net.cpp:141] Setting up conv1
I1113 06:25:26.969215 10123 net.cpp:148] Top shape: 512 64 32 32 (33554432)
I1113 06:25:26.969221 10123 net.cpp:156] Memory required for data: 140511232
I1113 06:25:26.969238 10123 layer_factory.hpp:77] Creating layer relu1
I1113 06:25:26.969249 10123 net.cpp:91] Creating Layer relu1
I1113 06:25:26.969255 10123 net.cpp:425] relu1 <- conv1
I1113 06:25:26.969264 10123 net.cpp:386] relu1 -> conv1 (in-place)
I1113 06:25:26.969458 10123 net.cpp:141] Setting up relu1
I1113 06:25:26.969472 10123 net.cpp:148] Top shape: 512 64 32 32 (33554432)
I1113 06:25:26.969477 10123 net.cpp:156] Memory required for data: 274728960
I1113 06:25:26.969485 10123 layer_factory.hpp:77] Creating layer pool1
I1113 06:25:26.969496 10123 net.cpp:91] Creating Layer pool1
I1113 06:25:26.969501 10123 net.cpp:425] pool1 <- conv1
I1113 06:25:26.969509 10123 net.cpp:399] pool1 -> pool1
I1113 06:25:26.969552 10123 net.cpp:141] Setting up pool1
I1113 06:25:26.969563 10123 net.cpp:148] Top shape: 512 64 16 16 (8388608)
I1113 06:25:26.969568 10123 net.cpp:156] Memory required for data: 308283392
I1113 06:25:26.969574 10123 layer_factory.hpp:77] Creating layer conv2
I1113 06:25:26.969588 10123 net.cpp:91] Creating Layer conv2
I1113 06:25:26.969594 10123 net.cpp:425] conv2 <- pool1
I1113 06:25:26.969604 10123 net.cpp:399] conv2 -> conv2
I1113 06:25:26.973978 10123 net.cpp:141] Setting up conv2
I1113 06:25:26.973999 10123 net.cpp:148] Top shape: 512 64 16 16 (8388608)
I1113 06:25:26.974004 10123 net.cpp:156] Memory required for data: 341837824
I1113 06:25:26.974025 10123 layer_factory.hpp:77] Creating layer relu2
I1113 06:25:26.974035 10123 net.cpp:91] Creating Layer relu2
I1113 06:25:26.974041 10123 net.cpp:425] relu2 <- conv2
I1113 06:25:26.974050 10123 net.cpp:386] relu2 -> conv2 (in-place)
I1113 06:25:26.974273 10123 net.cpp:141] Setting up relu2
I1113 06:25:26.974288 10123 net.cpp:148] Top shape: 512 64 16 16 (8388608)
I1113 06:25:26.974294 10123 net.cpp:156] Memory required for data: 375392256
I1113 06:25:26.974300 10123 layer_factory.hpp:77] Creating layer pool2
I1113 06:25:26.974310 10123 net.cpp:91] Creating Layer pool2
I1113 06:25:26.974316 10123 net.cpp:425] pool2 <- conv2
I1113 06:25:26.974324 10123 net.cpp:399] pool2 -> pool2
I1113 06:25:26.974361 10123 net.cpp:141] Setting up pool2
I1113 06:25:26.974372 10123 net.cpp:148] Top shape: 512 64 8 8 (2097152)
I1113 06:25:26.974377 10123 net.cpp:156] Memory required for data: 383780864
I1113 06:25:26.974395 10123 layer_factory.hpp:77] Creating layer conv3
I1113 06:25:26.974408 10123 net.cpp:91] Creating Layer conv3
I1113 06:25:26.974416 10123 net.cpp:425] conv3 <- pool2
I1113 06:25:26.974423 10123 net.cpp:399] conv3 -> conv3
I1113 06:25:26.981766 10123 net.cpp:141] Setting up conv3
I1113 06:25:26.981787 10123 net.cpp:148] Top shape: 512 128 8 8 (4194304)
I1113 06:25:26.981793 10123 net.cpp:156] Memory required for data: 400558080
I1113 06:25:26.981807 10123 layer_factory.hpp:77] Creating layer relu3
I1113 06:25:26.981819 10123 net.cpp:91] Creating Layer relu3
I1113 06:25:26.981825 10123 net.cpp:425] relu3 <- conv3
I1113 06:25:26.981833 10123 net.cpp:386] relu3 -> conv3 (in-place)
I1113 06:25:26.982064 10123 net.cpp:141] Setting up relu3
I1113 06:25:26.982079 10123 net.cpp:148] Top shape: 512 128 8 8 (4194304)
I1113 06:25:26.982084 10123 net.cpp:156] Memory required for data: 417335296
I1113 06:25:26.982092 10123 layer_factory.hpp:77] Creating layer pool3
I1113 06:25:26.982102 10123 net.cpp:91] Creating Layer pool3
I1113 06:25:26.982108 10123 net.cpp:425] pool3 <- conv3
I1113 06:25:26.982116 10123 net.cpp:399] pool3 -> pool3
I1113 06:25:26.982162 10123 net.cpp:141] Setting up pool3
I1113 06:25:26.982172 10123 net.cpp:148] Top shape: 512 128 4 4 (1048576)
I1113 06:25:26.982178 10123 net.cpp:156] Memory required for data: 421529600
I1113 06:25:26.982184 10123 layer_factory.hpp:77] Creating layer ip1
I1113 06:25:26.982195 10123 net.cpp:91] Creating Layer ip1
I1113 06:25:26.982201 10123 net.cpp:425] ip1 <- pool3
I1113 06:25:26.982210 10123 net.cpp:399] ip1 -> ip1
I1113 06:25:26.990638 10123 net.cpp:141] Setting up ip1
I1113 06:25:26.990662 10123 net.cpp:148] Top shape: 512 128 (65536)
I1113 06:25:26.990669 10123 net.cpp:156] Memory required for data: 421791744
I1113 06:25:26.990679 10123 layer_factory.hpp:77] Creating layer ip2
I1113 06:25:26.990690 10123 net.cpp:91] Creating Layer ip2
I1113 06:25:26.990697 10123 net.cpp:425] ip2 <- ip1
I1113 06:25:26.990706 10123 net.cpp:399] ip2 -> ip2
I1113 06:25:26.990850 10123 net.cpp:141] Setting up ip2
I1113 06:25:26.990862 10123 net.cpp:148] Top shape: 512 10 (5120)
I1113 06:25:26.990869 10123 net.cpp:156] Memory required for data: 421812224
I1113 06:25:26.990880 10123 layer_factory.hpp:77] Creating layer loss
I1113 06:25:26.990890 10123 net.cpp:91] Creating Layer loss
I1113 06:25:26.990896 10123 net.cpp:425] loss <- ip2
I1113 06:25:26.990902 10123 net.cpp:425] loss <- label
I1113 06:25:26.990911 10123 net.cpp:399] loss -> loss
I1113 06:25:26.990922 10123 layer_factory.hpp:77] Creating layer loss
…
I1113 06:25:26.991276 10123 net.cpp:274] Network initialization done.
I1113 06:25:26.991927 10123 solver.cpp:181] Creating test net (#0) specified by test_net file: /home/ubuntu/results/bohb/smallcnn/trial200/arm31/network_val.prototxt
I1113 06:25:26.992137 10123 net.cpp:49] Initializing net from parameters: 
state {
  phase: TEST
}
layer {
  name: "data"
  type: "Data"
  top: "data"
  top: "label"
  transform_param {
    mean_file: "/mnt/data/cifar10_mean/mean.binaryproto"
  }
  data_param {
    source: "/mnt/data/cifar10_mean/cifar10_evenval_lmdb"
    batch_size: 512
    backend: LMDB
  }
}
layer {
  name: "conv1"
  type: "Convolution"
  bottom: "data"
  top: "conv1"
  param {
    lr_mult: 1
    decay_mult: 0.034714859
  }
  param {
    lr_mult: 2
    decay_mult: 0
  }
  convolution_param {
    num_output: 64
    pad: 2
    kernel_size: 5
    stride: 1
    weight_filler {
      type: "gaussian"
      std: 0.0059011835
    }
    bias_filler {
      type: "constant"
    }
  }
}
layer {
  name: "relu1"
  type: "ReLU"
  bottom: "conv1"
  top: "conv1"
}
layer {
  name: "pool1"
  type: "Pooling"
  bottom: "conv1"
  top: "pool1"
  pooling_param {
    pool: MAX
    kernel_size: 3
    stride: 2
  }
}
layer {
  name: "conv2"
  type: "Convolution"
  bottom: "pool1"
  top: "conv2"
  param {
    lr_mult: 1
    decay_mult: 0.034714859
  }
  param {
    lr_mult: 2
    decay_mult: 0
  }
  convolution_param {
    num_output: 64
    pad: 2
    kernel_size: 5
    stride: 1
    weight_filler {
      type: "gaussian"
      std: 0.0059011835
    }
    bias_filler {
      type: "constant"
    }
  }
}
layer {
  name: "relu2"
  type: "ReLU"
  bottom: "conv2"
  top: "conv2"
}
layer {
  name: "pool2"
  type: "Pooling"
  bottom: "conv2"
  top: "pool2"
  pooling_param {
    pool: MAX
    kernel_size: 3
    stride: 2
  }
}
layer {
  name: "conv3"
  type: "Convolution"
  bottom: "pool2"
  top: "conv3"
  param {
    lr_mult: 1
    decay_mult: 0.034714859
  }
  param {
    lr_mult: 2
    decay_mult: 0
  }
  convolution_param {
    num_output: 128
    pad: 2
    kernel_size: 5
    stride: 1
    weight_filler {
      type: "gaussian"
      std: 0.0059011835
    }
    bias_filler {
      type: "constant"
    }
  }
}
layer {
  name: "relu3"
  type: "ReLU"
  bottom: "conv3"
  top: "conv3"
}
layer {
  name: "pool3"
  type: "Pooling"
  bottom: "conv3"
  top: "pool3"
  pooling_param {
    pool: MAX
    kernel_size: 3
    stride: 2
  }
}
layer {
  name: "ip1"
  type: "InnerProduct"
  bottom: "pool3"
  top: "ip1"
  param {
    lr_mult: 1
    decay_mult: 0.023458874
  }
  param {
    lr_mult: 2
    decay_mult: 0
  }
  inner_product_param {
    num_output: 128
    weight_filler {
      type: "gaussian"
      std: 0.015949313
    }
    bias_filler {
      type: "constant"
    }
  }
}
layer {
  name: "ip2"
  type: "InnerProduct"
  bottom: "ip1"
  top: "ip2"
  param {
    lr_mult: 1
    decay_mult: 0.015110502
  }
  param {
    lr_mult: 2
    decay_mult: 0
  }
  inner_product_param {
    num_output: 10
    weight_filler {
      type: "gaussian"
      std: 0.20284931
    }
    bias_filler {
      type: "constant"
    }
  }
}
layer {
  name: "loss"
  type: "SoftmaxWithLoss"
  bottom: "ip2"
  bottom: "label"
  top: "loss"
}
layer {
  name: "acc"
  type: "Accuracy"
  bottom: "ip2"
  bottom: "label"
  top: "acc"
}
I1113 06:25:26.992213 10123 layer_factory.hpp:77] Creating layer data
I1113 06:25:26.992512 10123 net.cpp:91] Creating Layer data
I1113 06:25:26.992525 10123 net.cpp:399] data -> data
I1113 06:25:26.992537 10123 net.cpp:399] data -> label
I1113 06:25:26.992547 10123 data_transformer.cpp:25] Loading mean file from: /mnt/data/cifar10_mean/mean.binaryproto
I1113 06:25:26.993237 10126 db_lmdb.cpp:38] Opened lmdb /mnt/data/cifar10_mean/cifar10_evenval_lmdb
I1113 06:25:26.993350 10123 data_layer.cpp:41] output data size: 512,3,32,32
I1113 06:25:27.003882 10123 net.cpp:141] Setting up data
I1113 06:25:27.003931 10123 net.cpp:148] Top shape: 512 3 32 32 (1572864)
I1113 06:25:27.003938 10123 net.cpp:148] Top shape: 512 (512)
I1113 06:25:27.003943 10123 net.cpp:156] Memory required for data: 6293504
I1113 06:25:27.003953 10123 layer_factory.hpp:77] Creating layer label_data_1_split
I1113 06:25:27.003973 10123 net.cpp:91] Creating Layer label_data_1_split
I1113 06:25:27.003991 10123 net.cpp:425] label_data_1_split <- label
I1113 06:25:27.004004 10123 net.cpp:399] label_data_1_split -> label_data_1_split_0
I1113 06:25:27.004019 10123 net.cpp:399] label_data_1_split -> label_data_1_split_1
I1113 06:25:27.004073 10123 net.cpp:141] Setting up label_data_1_split
I1113 06:25:27.004083 10123 net.cpp:148] Top shape: 512 (512)
I1113 06:25:27.004091 10123 net.cpp:148] Top shape: 512 (512)
I1113 06:25:27.004096 10123 net.cpp:156] Memory required for data: 6297600
I1113 06:25:27.004101 10123 layer_factory.hpp:77] Creating layer conv1
I1113 06:25:27.004119 10123 net.cpp:91] Creating Layer conv1
I1113 06:25:27.004125 10123 net.cpp:425] conv1 <- data
I1113 06:25:27.004134 10123 net.cpp:399] conv1 -> conv1
I1113 06:25:27.005856 10123 net.cpp:141] Setting up conv1
I1113 06:25:27.005875 10123 net.cpp:148] Top shape: 512 64 32 32 (33554432)
I1113 06:25:27.005882 10123 net.cpp:156] Memory required for data: 140515328
I1113 06:25:27.005898 10123 layer_factory.hpp:77] Creating layer relu1
I1113 06:25:27.005909 10123 net.cpp:91] Creating Layer relu1
I1113 06:25:27.005915 10123 net.cpp:425] relu1 <- conv1
I1113 06:25:27.005923 10123 net.cpp:386] relu1 -> conv1 (in-place)
I1113 06:25:27.006156 10123 net.cpp:141] Setting up relu1
I1113 06:25:27.006171 10123 net.cpp:148] Top shape: 512 64 32 32 (33554432)
I1113 06:25:27.006177 10123 net.cpp:156] Memory required for data: 274733056
I1113 06:25:27.006184 10123 layer_factory.hpp:77] Creating layer pool1
I1113 06:25:27.006196 10123 net.cpp:91] Creating Layer pool1
I1113 06:25:27.006202 10123 net.cpp:425] pool1 <- conv1
I1113 06:25:27.006211 10123 net.cpp:399] pool1 -> pool1
I1113 06:25:27.006258 10123 net.cpp:141] Setting up pool1
I1113 06:25:27.006268 10123 net.cpp:148] Top shape: 512 64 16 16 (8388608)
I1113 06:25:27.006273 10123 net.cpp:156] Memory required for data: 308287488
I1113 06:25:27.006279 10123 layer_factory.hpp:77] Creating layer conv2
I1113 06:25:27.006292 10123 net.cpp:91] Creating Layer conv2
I1113 06:25:27.006299 10123 net.cpp:425] conv2 <- pool1
I1113 06:25:27.006307 10123 net.cpp:399] conv2 -> conv2
I1113 06:25:27.010234 10123 net.cpp:141] Setting up conv2
I1113 06:25:27.010251 10123 net.cpp:148] Top shape: 512 64 16 16 (8388608)
I1113 06:25:27.010258 10123 net.cpp:156] Memory required for data: 341841920
I1113 06:25:27.010270 10123 layer_factory.hpp:77] Creating layer relu2
I1113 06:25:27.010280 10123 net.cpp:91] Creating Layer relu2
I1113 06:25:27.010287 10123 net.cpp:425] relu2 <- conv2
I1113 06:25:27.010294 10123 net.cpp:386] relu2 -> conv2 (in-place)
I1113 06:25:27.010427 10123 net.cpp:141] Setting up relu2
I1113 06:25:27.010440 10123 net.cpp:148] Top shape: 512 64 16 16 (8388608)
I1113 06:25:27.010447 10123 net.cpp:156] Memory required for data: 375396352
I1113 06:25:27.010452 10123 layer_factory.hpp:77] Creating layer pool2
I1113 06:25:27.010462 10123 net.cpp:91] Creating Layer pool2
I1113 06:25:27.010468 10123 net.cpp:425] pool2 <- conv2
I1113 06:25:27.010475 10123 net.cpp:399] pool2 -> pool2
I1113 06:25:27.010514 10123 net.cpp:141] Setting up pool2
I1113 06:25:27.010524 10123 net.cpp:148] Top shape: 512 64 8 8 (2097152)
I1113 06:25:27.010529 10123 net.cpp:156] Memory required for data: 383784960
I1113 06:25:27.010535 10123 layer_factory.hpp:77] Creating layer conv3
I1113 06:25:27.010550 10123 net.cpp:91] Creating Layer conv3
I1113 06:25:27.010556 10123 net.cpp:425] conv3 <- pool2
I1113 06:25:27.010565 10123 net.cpp:399] conv3 -> conv3
I1113 06:25:27.018057 10123 net.cpp:141] Setting up conv3
I1113 06:25:27.018079 10123 net.cpp:148] Top shape: 512 128 8 8 (4194304)
I1113 06:25:27.018085 10123 net.cpp:156] Memory required for data: 400562176
I1113 06:25:27.018100 10123 layer_factory.hpp:77] Creating layer relu3
I1113 06:25:27.018108 10123 net.cpp:91] Creating Layer relu3
I1113 06:25:27.018115 10123 net.cpp:425] relu3 <- conv3
I1113 06:25:27.018122 10123 net.cpp:386] relu3 -> conv3 (in-place)
I1113 06:25:27.018359 10123 net.cpp:141] Setting up relu3
I1113 06:25:27.018374 10123 net.cpp:148] Top shape: 512 128 8 8 (4194304)
I1113 06:25:27.018388 10123 net.cpp:156] Memory required for data: 417339392
I1113 06:25:27.018395 10123 layer_factory.hpp:77] Creating layer pool3
I1113 06:25:27.018404 10123 net.cpp:91] Creating Layer pool3
I1113 06:25:27.018410 10123 net.cpp:425] pool3 <- conv3
I1113 06:25:27.018419 10123 net.cpp:399] pool3 -> pool3
I1113 06:25:27.018465 10123 net.cpp:141] Setting up pool3
I1113 06:25:27.018476 10123 net.cpp:148] Top shape: 512 128 4 4 (1048576)
I1113 06:25:27.018482 10123 net.cpp:156] Memory required for data: 421533696
I1113 06:25:27.018488 10123 layer_factory.hpp:77] Creating layer ip1
I1113 06:25:27.018499 10123 net.cpp:91] Creating Layer ip1
I1113 06:25:27.018505 10123 net.cpp:425] ip1 <- pool3
I1113 06:25:27.018513 10123 net.cpp:399] ip1 -> ip1
I1113 06:25:27.026935 10123 net.cpp:141] Setting up ip1
I1113 06:25:27.026954 10123 net.cpp:148] Top shape: 512 128 (65536)
I1113 06:25:27.026960 10123 net.cpp:156] Memory required for data: 421795840
I1113 06:25:27.026970 10123 layer_factory.hpp:77] Creating layer ip2
I1113 06:25:27.026981 10123 net.cpp:91] Creating Layer ip2
I1113 06:25:27.026988 10123 net.cpp:425] ip2 <- ip1
I1113 06:25:27.026998 10123 net.cpp:399] ip2 -> ip2
I1113 06:25:27.027140 10123 net.cpp:141] Setting up ip2
I1113 06:25:27.027151 10123 net.cpp:148] Top shape: 512 10 (5120)
I1113 06:25:27.027158 10123 net.cpp:156] Memory required for data: 421816320
I1113 06:25:27.027169 10123 layer_factory.hpp:77] Creating layer ip2_ip2_0_split
I1113 06:25:27.027179 10123 net.cpp:91] Creating Layer ip2_ip2_0_split
I1113 06:25:27.027184 10123 net.cpp:425] ip2_ip2_0_split <- ip2
I1113 06:25:27.027192 10123 net.cpp:399] ip2_ip2_0_split -> ip2_ip2_0_split_0
I1113 06:25:27.027200 10123 net.cpp:399] ip2_ip2_0_split -> ip2_ip2_0_split_1
I1113 06:25:27.027240 10123 net.cpp:141] Setting up ip2_ip2_0_split
I1113 06:25:27.027256 10123 net.cpp:148] Top shape: 512 10 (5120)
I1113 06:25:27.027262 10123 net.cpp:148] Top shape: 512 10 (5120)
I1113 06:25:27.027267 10123 net.cpp:156] Memory required for data: 421857280
I1113 06:25:27.027272 10123 layer_factory.hpp:77] Creating layer loss
I1113 06:25:27.027281 10123 net.cpp:91] Creating Layer loss
I1113 06:25:27.027287 10123 net.cpp:425] loss <- ip2_ip2_0_split_0
I1113 06:25:27.027294 10123 net.cpp:425] loss <- label_data_1_split_0
I1113 06:25:27.027302 10123 net.cpp:399] loss -> loss
…
random_seed: 232
iter_size: 1
type: "SGD"
I1113 06:26:09.018517 10159 solver.cpp:81] Creating training net from train_net file: /home/ubuntu/results/bohb/smallcnn/trial200/arm32/network_train.prototxt
I1113 06:26:09.018887 10159 net.cpp:49] Initializing net from parameters: 
state {
  phase: TRAIN
}
layer {
  name: "data"
  type: "Data"
  top: "data"
  top: "label"
  transform_param {
    mean_file: "/mnt/data/cifar10_mean/mean.binaryproto"
  }
  data_param {
    source: "/mnt/data/cifar10_mean/cifar10_eventrain_lmdb"
    batch_size: 256
    backend: LMDB
  }
}
layer {
  name: "conv1"
  type: "Convolution"
  bottom: "data"
  top: "conv1"
  param {
    lr_mult: 1
    decay_mult: 0.016317738
  }
  param {
    lr_mult: 2
    decay_mult: 0
  }
  convolution_param {
    num_output: 64
    pad: 2
    kernel_size: 5
    stride: 1
    weight_filler {
      type: "gaussian"
      std: 0.0012123685
    }
    bias_filler {
      type: "constant"
    }
  }
}
layer {
  name: "relu1"
  type: "ReLU"
  bottom: "conv1"
  top: "conv1"
}
layer {
  name: "pool1"
  type: "Pooling"
  bottom: "conv1"
  top: "pool1"
  pooling_param {
    pool: MAX
    kernel_size: 3
    stride: 2
  }
}
layer {
  name: "conv2"
  type: "Convolution"
  bottom: "pool1"
  top: "conv2"
  param {
    lr_mult: 1
    decay_mult: 0.016317738
  }
  param {
    lr_mult: 2
    decay_mult: 0
  }
  convolution_param {
    num_output: 128
    pad: 2
    kernel_size: 5
    stride: 1
    weight_filler {
      type: "gaussian"
      std: 0.0012123685
    }
    bias_filler {
      type: "constant"
    }
  }
}
layer {
  name: "relu2"
  type: "ReLU"
  bottom: "conv2"
  top: "conv2"
}
layer {
  name: "pool2"
  type: "Pooling"
  bottom: "conv2"
  top: "pool2"
  pooling_param {
    pool: MAX
    kernel_size: 3
    stride: 2
  }
}
layer {
  name: "ip1"
  type: "InnerProduct"
  bottom: "pool2"
  top: "ip1"
  param {
    lr_mult: 1
    decay_mult: 0.28023136
  }
  param {
    lr_mult: 2
    decay_mult: 0
  }
  inner_product_param {
    num_output: 128
    weight_filler {
      type: "gaussian"
      std: 0.0013714375
    }
    bias_filler {
      type: "constant"
    }
  }
}
layer {
  name: "ip2"
  type: "InnerProduct"
  bottom: "ip1"
  top: "ip2"
  param {
    lr_mult: 1
    decay_mult: 0.11993228
  }
  param {
    lr_mult: 2
    decay_mult: 0
  }
  inner_product_param {
    num_output: 10
    weight_filler {
      type: "gaussian"
      std: 0.0012027136
    }
    bias_filler {
      type: "constant"
    }
  }
}
layer {
  name: "loss"
  type: "SoftmaxWithLoss"
  bottom: "ip2"
  bottom: "label"
  top: "loss"
}
I1113 06:26:09.018954 10159 layer_factory.hpp:77] Creating layer data
I1113 06:26:09.019119 10159 net.cpp:91] Creating Layer data
I1113 06:26:09.019132 10159 net.cpp:399] data -> data
I1113 06:26:09.019147 10159 net.cpp:399] data -> label
I1113 06:26:09.019160 10159 data_transformer.cpp:25] Loading mean file from: /mnt/data/cifar10_mean/mean.binaryproto
I1113 06:26:09.020197 10160 db_lmdb.cpp:38] Opened lmdb /mnt/data/cifar10_mean/cifar10_eventrain_lmdb
I1113 06:26:09.020284 10159 data_layer.cpp:41] output data size: 256,3,32,32
I1113 06:26:09.025899 10159 net.cpp:141] Setting up data
I1113 06:26:09.025925 10159 net.cpp:148] Top shape: 256 3 32 32 (786432)
I1113 06:26:09.025933 10159 net.cpp:148] Top shape: 256 (256)
I1113 06:26:09.025938 10159 net.cpp:156] Memory required for data: 3146752
I1113 06:26:09.025945 10159 layer_factory.hpp:77] Creating layer conv1
I1113 06:26:09.025965 10159 net.cpp:91] Creating Layer conv1
I1113 06:26:09.025972 10159 net.cpp:425] conv1 <- data
I1113 06:26:09.025982 10159 net.cpp:399] conv1 -> conv1
I1113 06:26:09.027849 10159 net.cpp:141] Setting up conv1
I1113 06:26:09.027868 10159 net.cpp:148] Top shape: 256 64 32 32 (16777216)
I1113 06:26:09.027874 10159 net.cpp:156] Memory required for data: 70255616
I1113 06:26:09.027890 10159 layer_factory.hpp:77] Creating layer relu1
I1113 06:26:09.027901 10159 net.cpp:91] Creating Layer relu1
I1113 06:26:09.027907 10159 net.cpp:425] relu1 <- conv1
I1113 06:26:09.027915 10159 net.cpp:386] relu1 -> conv1 (in-place)
I1113 06:26:09.028076 10159 net.cpp:141] Setting up relu1
I1113 06:26:09.028090 10159 net.cpp:148] Top shape: 256 64 32 32 (16777216)
I1113 06:26:09.028095 10159 net.cpp:156] Memory required for data: 137364480
I1113 06:26:09.028101 10159 layer_factory.hpp:77] Creating layer pool1
I1113 06:26:09.028112 10159 net.cpp:91] Creating Layer pool1
I1113 06:26:09.028117 10159 net.cpp:425] pool1 <- conv1
I1113 06:26:09.028126 10159 net.cpp:399] pool1 -> pool1
I1113 06:26:09.028168 10159 net.cpp:141] Setting up pool1
I1113 06:26:09.028178 10159 net.cpp:148] Top shape: 256 64 16 16 (4194304)
I1113 06:26:09.028184 10159 net.cpp:156] Memory required for data: 154141696
I1113 06:26:09.028190 10159 layer_factory.hpp:77] Creating layer conv2
I1113 06:26:09.028204 10159 net.cpp:91] Creating Layer conv2
I1113 06:26:09.028210 10159 net.cpp:425] conv2 <- pool1
I1113 06:26:09.028219 10159 net.cpp:399] conv2 -> conv2
I1113 06:26:09.035694 10159 net.cpp:141] Setting up conv2
I1113 06:26:09.035715 10159 net.cpp:148] Top shape: 256 128 16 16 (8388608)
I1113 06:26:09.035722 10159 net.cpp:156] Memory required for data: 187696128
I1113 06:26:09.035734 10159 layer_factory.hpp:77] Creating layer relu2
I1113 06:26:09.035755 10159 net.cpp:91] Creating Layer relu2
I1113 06:26:09.035761 10159 net.cpp:425] relu2 <- conv2
I1113 06:26:09.035769 10159 net.cpp:386] relu2 -> conv2 (in-place)
I1113 06:26:09.036043 10159 net.cpp:141] Setting up relu2
I1113 06:26:09.036059 10159 net.cpp:148] Top shape: 256 128 16 16 (8388608)
I1113 06:26:09.036065 10159 net.cpp:156] Memory required for data: 221250560
I1113 06:26:09.036072 10159 layer_factory.hpp:77] Creating layer pool2
I1113 06:26:09.036082 10159 net.cpp:91] Creating Layer pool2
I1113 06:26:09.036087 10159 net.cpp:425] pool2 <- conv2
I1113 06:26:09.036096 10159 net.cpp:399] pool2 -> pool2
I1113 06:26:09.036368 10159 net.cpp:141] Setting up pool2
I1113 06:26:09.036382 10159 net.cpp:148] Top shape: 256 128 8 8 (2097152)
I1113 06:26:09.036388 10159 net.cpp:156] Memory required for data: 229639168
I1113 06:26:09.036394 10159 layer_factory.hpp:77] Creating layer ip1
I1113 06:26:09.036406 10159 net.cpp:91] Creating Layer ip1
I1113 06:26:09.036412 10159 net.cpp:425] ip1 <- pool2
I1113 06:26:09.036420 10159 net.cpp:399] ip1 -> ip1
I1113 06:26:09.069536 10159 net.cpp:141] Setting up ip1
I1113 06:26:09.069555 10159 net.cpp:148] Top shape: 256 128 (32768)
I1113 06:26:09.069561 10159 net.cpp:156] Memory required for data: 229770240
I1113 06:26:09.069574 10159 layer_factory.hpp:77] Creating layer ip2
I1113 06:26:09.069587 10159 net.cpp:91] Creating Layer ip2
I1113 06:26:09.069593 10159 net.cpp:425] ip2 <- ip1
I1113 06:26:09.069602 10159 net.cpp:399] ip2 -> ip2
I1113 06:26:09.069736 10159 net.cpp:141] Setting up ip2
I1113 06:26:09.069746 10159 net.cpp:148] Top shape: 256 10 (2560)
I1113 06:26:09.069751 10159 net.cpp:156] Memory required for data: 229780480
I1113 06:26:09.069761 10159 layer_factory.hpp:77] Creating layer loss
I1113 06:26:09.069768 10159 net.cpp:91] Creating Layer loss
I1113 06:26:09.069774 10159 net.cpp:425] loss <- ip2
I1113 06:26:09.069780 10159 net.cpp:425] loss <- label
I1113 06:26:09.069787 10159 net.cpp:399] loss -> loss
I1113 06:26:09.069799 10159 layer_factory.hpp:77] Creating layer loss
…
I1113 06:26:09.070137 10159 net.cpp:274] Network initialization done.
I1113 06:26:09.070690 10159 solver.cpp:181] Creating test net (#0) specified by test_net file: /home/ubuntu/results/bohb/smallcnn/trial200/arm32/network_val.prototxt
I1113 06:26:09.070864 10159 net.cpp:49] Initializing net from parameters: 
state {
  phase: TEST
}
layer {
  name: "data"
  type: "Data"
  top: "data"
  top: "label"
  transform_param {
    mean_file: "/mnt/data/cifar10_mean/mean.binaryproto"
  }
  data_param {
    source: "/mnt/data/cifar10_mean/cifar10_evenval_lmdb"
    batch_size: 256
    backend: LMDB
  }
}
layer {
  name: "conv1"
  type: "Convolution"
  bottom: "data"
  top: "conv1"
  param {
    lr_mult: 1
    decay_mult: 0.016317738
  }
  param {
    lr_mult: 2
    decay_mult: 0
  }
  convolution_param {
    num_output: 64
    pad: 2
    kernel_size: 5
    stride: 1
    weight_filler {
      type: "gaussian"
      std: 0.0012123685
    }
    bias_filler {
      type: "constant"
    }
  }
}
layer {
  name: "relu1"
  type: "ReLU"
  bottom: "conv1"
  top: "conv1"
}
layer {
  name: "pool1"
  type: "Pooling"
  bottom: "conv1"
  top: "pool1"
  pooling_param {
    pool: MAX
    kernel_size: 3
    stride: 2
  }
}
layer {
  name: "conv2"
  type: "Convolution"
  bottom: "pool1"
  top: "conv2"
  param {
    lr_mult: 1
    decay_mult: 0.016317738
  }
  param {
    lr_mult: 2
    decay_mult: 0
  }
  convolution_param {
    num_output: 128
    pad: 2
    kernel_size: 5
    stride: 1
    weight_filler {
      type: "gaussian"
      std: 0.0012123685
    }
    bias_filler {
      type: "constant"
    }
  }
}
layer {
  name: "relu2"
  type: "ReLU"
  bottom: "conv2"
  top: "conv2"
}
layer {
  name: "pool2"
  type: "Pooling"
  bottom: "conv2"
  top: "pool2"
  pooling_param {
    pool: MAX
    kernel_size: 3
    stride: 2
  }
}
layer {
  name: "ip1"
  type: "InnerProduct"
  bottom: "pool2"
  top: "ip1"
  param {
    lr_mult: 1
    decay_mult: 0.28023136
  }
  param {
    lr_mult: 2
    decay_mult: 0
  }
  inner_product_param {
    num_output: 128
    weight_filler {
      type: "gaussian"
      std: 0.0013714375
    }
    bias_filler {
      type: "constant"
    }
  }
}
layer {
  name: "ip2"
  type: "InnerProduct"
  bottom: "ip1"
  top: "ip2"
  param {
    lr_mult: 1
    decay_mult: 0.11993228
  }
  param {
    lr_mult: 2
    decay_mult: 0
  }
  inner_product_param {
    num_output: 10
    weight_filler {
      type: "gaussian"
      std: 0.0012027136
    }
    bias_filler {
      type: "constant"
    }
  }
}
layer {
  name: "loss"
  type: "SoftmaxWithLoss"
  bottom: "ip2"
  bottom: "label"
  top: "loss"
}
layer {
  name: "acc"
  type: "Accuracy"
  bottom: "ip2"
  bottom: "label"
  top: "acc"
}
I1113 06:26:09.070942 10159 layer_factory.hpp:77] Creating layer data
I1113 06:26:09.071130 10159 net.cpp:91] Creating Layer data
I1113 06:26:09.071143 10159 net.cpp:399] data -> data
I1113 06:26:09.071154 10159 net.cpp:399] data -> label
I1113 06:26:09.071164 10159 data_transformer.cpp:25] Loading mean file from: /mnt/data/cifar10_mean/mean.binaryproto
I1113 06:26:09.071806 10162 db_lmdb.cpp:38] Opened lmdb /mnt/data/cifar10_mean/cifar10_evenval_lmdb
I1113 06:26:09.071918 10159 data_layer.cpp:41] output data size: 256,3,32,32
I1113 06:26:09.077591 10159 net.cpp:141] Setting up data
I1113 06:26:09.077615 10159 net.cpp:148] Top shape: 256 3 32 32 (786432)
I1113 06:26:09.077623 10159 net.cpp:148] Top shape: 256 (256)
I1113 06:26:09.077630 10159 net.cpp:156] Memory required for data: 3146752
I1113 06:26:09.077636 10159 layer_factory.hpp:77] Creating layer label_data_1_split
I1113 06:26:09.077648 10159 net.cpp:91] Creating Layer label_data_1_split
I1113 06:26:09.077654 10159 net.cpp:425] label_data_1_split <- label
I1113 06:26:09.077663 10159 net.cpp:399] label_data_1_split -> label_data_1_split_0
I1113 06:26:09.077675 10159 net.cpp:399] label_data_1_split -> label_data_1_split_1
I1113 06:26:09.077728 10159 net.cpp:141] Setting up label_data_1_split
I1113 06:26:09.077739 10159 net.cpp:148] Top shape: 256 (256)
I1113 06:26:09.077745 10159 net.cpp:148] Top shape: 256 (256)
I1113 06:26:09.077750 10159 net.cpp:156] Memory required for data: 3148800
I1113 06:26:09.077756 10159 layer_factory.hpp:77] Creating layer conv1
I1113 06:26:09.077772 10159 net.cpp:91] Creating Layer conv1
I1113 06:26:09.077778 10159 net.cpp:425] conv1 <- data
I1113 06:26:09.077787 10159 net.cpp:399] conv1 -> conv1
I1113 06:26:09.079118 10159 net.cpp:141] Setting up conv1
I1113 06:26:09.079139 10159 net.cpp:148] Top shape: 256 64 32 32 (16777216)
I1113 06:26:09.079145 10159 net.cpp:156] Memory required for data: 70257664
I1113 06:26:09.079160 10159 layer_factory.hpp:77] Creating layer relu1
I1113 06:26:09.079170 10159 net.cpp:91] Creating Layer relu1
I1113 06:26:09.079177 10159 net.cpp:425] relu1 <- conv1
I1113 06:26:09.079185 10159 net.cpp:386] relu1 -> conv1 (in-place)
I1113 06:26:09.079438 10159 net.cpp:141] Setting up relu1
I1113 06:26:09.079454 10159 net.cpp:148] Top shape: 256 64 32 32 (16777216)
I1113 06:26:09.079468 10159 net.cpp:156] Memory required for data: 137366528
I1113 06:26:09.079475 10159 layer_factory.hpp:77] Creating layer pool1
I1113 06:26:09.079486 10159 net.cpp:91] Creating Layer pool1
I1113 06:26:09.079493 10159 net.cpp:425] pool1 <- conv1
I1113 06:26:09.079500 10159 net.cpp:399] pool1 -> pool1
I1113 06:26:09.079545 10159 net.cpp:141] Setting up pool1
I1113 06:26:09.079555 10159 net.cpp:148] Top shape: 256 64 16 16 (4194304)
I1113 06:26:09.079560 10159 net.cpp:156] Memory required for data: 154143744
I1113 06:26:09.079566 10159 layer_factory.hpp:77] Creating layer conv2
I1113 06:26:09.079578 10159 net.cpp:91] Creating Layer conv2
I1113 06:26:09.079584 10159 net.cpp:425] conv2 <- pool1
I1113 06:26:09.079593 10159 net.cpp:399] conv2 -> conv2
I1113 06:26:09.086926 10159 net.cpp:141] Setting up conv2
I1113 06:26:09.086946 10159 net.cpp:148] Top shape: 256 128 16 16 (8388608)
I1113 06:26:09.086952 10159 net.cpp:156] Memory required for data: 187698176
I1113 06:26:09.086964 10159 layer_factory.hpp:77] Creating layer relu2
I1113 06:26:09.086974 10159 net.cpp:91] Creating Layer relu2
I1113 06:26:09.086980 10159 net.cpp:425] relu2 <- conv2
I1113 06:26:09.086989 10159 net.cpp:386] relu2 -> conv2 (in-place)
I1113 06:26:09.087287 10159 net.cpp:141] Setting up relu2
I1113 06:26:09.087303 10159 net.cpp:148] Top shape: 256 128 16 16 (8388608)
I1113 06:26:09.087309 10159 net.cpp:156] Memory required for data: 221252608
I1113 06:26:09.087316 10159 layer_factory.hpp:77] Creating layer pool2
I1113 06:26:09.087325 10159 net.cpp:91] Creating Layer pool2
I1113 06:26:09.087355 10159 net.cpp:425] pool2 <- conv2
I1113 06:26:09.087365 10159 net.cpp:399] pool2 -> pool2
I1113 06:26:09.087406 10159 net.cpp:141] Setting up pool2
I1113 06:26:09.087417 10159 net.cpp:148] Top shape: 256 128 8 8 (2097152)
I1113 06:26:09.087422 10159 net.cpp:156] Memory required for data: 229641216
I1113 06:26:09.087429 10159 layer_factory.hpp:77] Creating layer ip1
I1113 06:26:09.087445 10159 net.cpp:91] Creating Layer ip1
I1113 06:26:09.087451 10159 net.cpp:425] ip1 <- pool2
I1113 06:26:09.087460 10159 net.cpp:399] ip1 -> ip1
I1113 06:26:09.120810 10159 net.cpp:141] Setting up ip1
I1113 06:26:09.120831 10159 net.cpp:148] Top shape: 256 128 (32768)
I1113 06:26:09.120837 10159 net.cpp:156] Memory required for data: 229772288
I1113 06:26:09.120852 10159 layer_factory.hpp:77] Creating layer ip2
I1113 06:26:09.120863 10159 net.cpp:91] Creating Layer ip2
I1113 06:26:09.120869 10159 net.cpp:425] ip2 <- ip1
I1113 06:26:09.120879 10159 net.cpp:399] ip2 -> ip2
I1113 06:26:09.121016 10159 net.cpp:141] Setting up ip2
I1113 06:26:09.121027 10159 net.cpp:148] Top shape: 256 10 (2560)
I1113 06:26:09.121032 10159 net.cpp:156] Memory required for data: 229782528
I1113 06:26:09.121042 10159 layer_factory.hpp:77] Creating layer ip2_ip2_0_split
I1113 06:26:09.121050 10159 net.cpp:91] Creating Layer ip2_ip2_0_split
I1113 06:26:09.121055 10159 net.cpp:425] ip2_ip2_0_split <- ip2
I1113 06:26:09.121063 10159 net.cpp:399] ip2_ip2_0_split -> ip2_ip2_0_split_0
I1113 06:26:09.121075 10159 net.cpp:399] ip2_ip2_0_split -> ip2_ip2_0_split_1
I1113 06:26:09.121109 10159 net.cpp:141] Setting up ip2_ip2_0_split
I1113 06:26:09.121119 10159 net.cpp:148] Top shape: 256 10 (2560)
I1113 06:26:09.121124 10159 net.cpp:148] Top shape: 256 10 (2560)
I1113 06:26:09.121129 10159 net.cpp:156] Memory required for data: 229803008
I1113 06:26:09.121135 10159 layer_factory.hpp:77] Creating layer loss
I1113 06:26:09.121145 10159 net.cpp:91] Creating Layer loss
I1113 06:26:09.121150 10159 net.cpp:425] loss <- ip2_ip2_0_split_0
I1113 06:26:09.121156 10159 net.cpp:425] loss <- label_data_1_split_0
I1113 06:26:09.121163 10159 net.cpp:399] loss -> loss
…
random_seed: 233
iter_size: 1
type: "SGD"
I1113 06:26:38.715023 10174 solver.cpp:81] Creating training net from train_net file: /home/ubuntu/results/bohb/smallcnn/trial200/arm33/network_train.prototxt
I1113 06:26:38.715445 10174 net.cpp:49] Initializing net from parameters: 
state {
  phase: TRAIN
}
layer {
  name: "data"
  type: "Data"
  top: "data"
  top: "label"
  transform_param {
    mean_file: "/mnt/data/cifar10_mean/mean.binaryproto"
  }
  data_param {
    source: "/mnt/data/cifar10_mean/cifar10_eventrain_lmdb"
    batch_size: 512
    backend: LMDB
  }
}
layer {
  name: "conv1"
  type: "Convolution"
  bottom: "data"
  top: "conv1"
  param {
    lr_mult: 1
    decay_mult: 0.001560719
  }
  param {
    lr_mult: 2
    decay_mult: 0
  }
  convolution_param {
    num_output: 48
    pad: 2
    kernel_size: 5
    stride: 1
    weight_filler {
      type: "gaussian"
      std: 0.00011769241
    }
    bias_filler {
      type: "constant"
    }
  }
}
layer {
  name: "relu1"
  type: "ReLU"
  bottom: "conv1"
  top: "conv1"
}
layer {
  name: "pool1"
  type: "Pooling"
  bottom: "conv1"
  top: "pool1"
  pooling_param {
    pool: MAX
    kernel_size: 3
    stride: 2
  }
}
layer {
  name: "conv2"
  type: "Convolution"
  bottom: "pool1"
  top: "conv2"
  param {
    lr_mult: 1
    decay_mult: 0.001560719
  }
  param {
    lr_mult: 2
    decay_mult: 0
  }
  convolution_param {
    num_output: 96
    pad: 2
    kernel_size: 5
    stride: 1
    weight_filler {
      type: "gaussian"
      std: 0.00011769241
    }
    bias_filler {
      type: "constant"
    }
  }
}
layer {
  name: "relu2"
  type: "ReLU"
  bottom: "conv2"
  top: "conv2"
}
layer {
  name: "pool2"
  type: "Pooling"
  bottom: "conv2"
  top: "pool2"
  pooling_param {
    pool: MAX
    kernel_size: 3
    stride: 2
  }
}
layer {
  name: "ip1"
  type: "InnerProduct"
  bottom: "pool2"
  top: "ip1"
  param {
    lr_mult: 1
    decay_mult: 0.033449944
  }
  param {
    lr_mult: 2
    decay_mult: 0
  }
  inner_product_param {
    num_output: 96
    weight_filler {
      type: "gaussian"
      std: 0.001486948
    }
    bias_filler {
      type: "constant"
    }
  }
}
layer {
  name: "ip2"
  type: "InnerProduct"
  bottom: "ip1"
  top: "ip2"
  param {
    lr_mult: 1
    decay_mult: 0.11677349
  }
  param {
    lr_mult: 2
    decay_mult: 0
  }
  inner_product_param {
    num_output: 10
    weight_filler {
      type: "gaussian"
      std: 0.15104984
    }
    bias_filler {
      type: "constant"
    }
  }
}
layer {
  name: "loss"
  type: "SoftmaxWithLoss"
  bottom: "ip2"
  bottom: "label"
  top: "loss"
}
I1113 06:26:38.715513 10174 layer_factory.hpp:77] Creating layer data
I1113 06:26:38.715778 10174 net.cpp:91] Creating Layer data
I1113 06:26:38.715791 10174 net.cpp:399] data -> data
I1113 06:26:38.715806 10174 net.cpp:399] data -> label
I1113 06:26:38.715817 10174 data_transformer.cpp:25] Loading mean file from: /mnt/data/cifar10_mean/mean.binaryproto
I1113 06:26:38.716935 10175 db_lmdb.cpp:38] Opened lmdb /mnt/data/cifar10_mean/cifar10_eventrain_lmdb
I1113 06:26:38.717026 10174 data_layer.cpp:41] output data size: 512,3,32,32
I1113 06:26:38.728261 10174 net.cpp:141] Setting up data
I1113 06:26:38.728308 10174 net.cpp:148] Top shape: 512 3 32 32 (1572864)
I1113 06:26:38.728317 10174 net.cpp:148] Top shape: 512 (512)
I1113 06:26:38.728322 10174 net.cpp:156] Memory required for data: 6293504
I1113 06:26:38.728332 10174 layer_factory.hpp:77] Creating layer conv1
I1113 06:26:38.728360 10174 net.cpp:91] Creating Layer conv1
I1113 06:26:38.728368 10174 net.cpp:425] conv1 <- data
I1113 06:26:38.728381 10174 net.cpp:399] conv1 -> conv1
I1113 06:26:38.729722 10174 net.cpp:141] Setting up conv1
I1113 06:26:38.729741 10174 net.cpp:148] Top shape: 512 48 32 32 (25165824)
I1113 06:26:38.729748 10174 net.cpp:156] Memory required for data: 106956800
I1113 06:26:38.729763 10174 layer_factory.hpp:77] Creating layer relu1
I1113 06:26:38.729775 10174 net.cpp:91] Creating Layer relu1
I1113 06:26:38.729781 10174 net.cpp:425] relu1 <- conv1
I1113 06:26:38.729790 10174 net.cpp:386] relu1 -> conv1 (in-place)
I1113 06:26:38.729993 10174 net.cpp:141] Setting up relu1
I1113 06:26:38.730007 10174 net.cpp:148] Top shape: 512 48 32 32 (25165824)
I1113 06:26:38.730013 10174 net.cpp:156] Memory required for data: 207620096
I1113 06:26:38.730020 10174 layer_factory.hpp:77] Creating layer pool1
I1113 06:26:38.730029 10174 net.cpp:91] Creating Layer pool1
I1113 06:26:38.730036 10174 net.cpp:425] pool1 <- conv1
I1113 06:26:38.730044 10174 net.cpp:399] pool1 -> pool1
I1113 06:26:38.730090 10174 net.cpp:141] Setting up pool1
I1113 06:26:38.730100 10174 net.cpp:148] Top shape: 512 48 16 16 (6291456)
I1113 06:26:38.730106 10174 net.cpp:156] Memory required for data: 232785920
I1113 06:26:38.730113 10174 layer_factory.hpp:77] Creating layer conv2
I1113 06:26:38.730126 10174 net.cpp:91] Creating Layer conv2
I1113 06:26:38.730132 10174 net.cpp:425] conv2 <- pool1
I1113 06:26:38.730142 10174 net.cpp:399] conv2 -> conv2
I1113 06:26:38.735098 10174 net.cpp:141] Setting up conv2
I1113 06:26:38.735118 10174 net.cpp:148] Top shape: 512 96 16 16 (12582912)
I1113 06:26:38.735124 10174 net.cpp:156] Memory required for data: 283117568
I1113 06:26:38.735139 10174 layer_factory.hpp:77] Creating layer relu2
I1113 06:26:38.735148 10174 net.cpp:91] Creating Layer relu2
I1113 06:26:38.735154 10174 net.cpp:425] relu2 <- conv2
I1113 06:26:38.735162 10174 net.cpp:386] relu2 -> conv2 (in-place)
I1113 06:26:38.735424 10174 net.cpp:141] Setting up relu2
I1113 06:26:38.735441 10174 net.cpp:148] Top shape: 512 96 16 16 (12582912)
I1113 06:26:38.735448 10174 net.cpp:156] Memory required for data: 333449216
I1113 06:26:38.735455 10174 layer_factory.hpp:77] Creating layer pool2
I1113 06:26:38.735463 10174 net.cpp:91] Creating Layer pool2
I1113 06:26:38.735469 10174 net.cpp:425] pool2 <- conv2
I1113 06:26:38.735477 10174 net.cpp:399] pool2 -> pool2
I1113 06:26:38.735517 10174 net.cpp:141] Setting up pool2
I1113 06:26:38.735527 10174 net.cpp:148] Top shape: 512 96 8 8 (3145728)
I1113 06:26:38.735533 10174 net.cpp:156] Memory required for data: 346032128
I1113 06:26:38.735539 10174 layer_factory.hpp:77] Creating layer ip1
I1113 06:26:38.735551 10174 net.cpp:91] Creating Layer ip1
I1113 06:26:38.735556 10174 net.cpp:425] ip1 <- pool2
I1113 06:26:38.735565 10174 net.cpp:399] ip1 -> ip1
I1113 06:26:38.754354 10174 net.cpp:141] Setting up ip1
I1113 06:26:38.754390 10174 net.cpp:148] Top shape: 512 96 (49152)
I1113 06:26:38.754396 10174 net.cpp:156] Memory required for data: 346228736
I1113 06:26:38.754413 10174 layer_factory.hpp:77] Creating layer ip2
I1113 06:26:38.754429 10174 net.cpp:91] Creating Layer ip2
I1113 06:26:38.754449 10174 net.cpp:425] ip2 <- ip1
I1113 06:26:38.754462 10174 net.cpp:399] ip2 -> ip2
I1113 06:26:38.754596 10174 net.cpp:141] Setting up ip2
I1113 06:26:38.754608 10174 net.cpp:148] Top shape: 512 10 (5120)
I1113 06:26:38.754614 10174 net.cpp:156] Memory required for data: 346249216
I1113 06:26:38.754626 10174 layer_factory.hpp:77] Creating layer loss
I1113 06:26:38.754637 10174 net.cpp:91] Creating Layer loss
I1113 06:26:38.754642 10174 net.cpp:425] loss <- ip2
I1113 06:26:38.754649 10174 net.cpp:425] loss <- label
I1113 06:26:38.754655 10174 net.cpp:399] loss -> loss
I1113 06:26:38.754668 10174 layer_factory.hpp:77] Creating layer loss
…
I1113 06:26:38.755587 10174 net.cpp:274] Network initialization done.
I1113 06:26:38.756125 10174 solver.cpp:181] Creating test net (#0) specified by test_net file: /home/ubuntu/results/bohb/smallcnn/trial200/arm33/network_val.prototxt
I1113 06:26:38.756307 10174 net.cpp:49] Initializing net from parameters: 
state {
  phase: TEST
}
layer {
  name: "data"
  type: "Data"
  top: "data"
  top: "label"
  transform_param {
    mean_file: "/mnt/data/cifar10_mean/mean.binaryproto"
  }
  data_param {
    source: "/mnt/data/cifar10_mean/cifar10_evenval_lmdb"
    batch_size: 512
    backend: LMDB
  }
}
layer {
  name: "conv1"
  type: "Convolution"
  bottom: "data"
  top: "conv1"
  param {
    lr_mult: 1
    decay_mult: 0.001560719
  }
  param {
    lr_mult: 2
    decay_mult: 0
  }
  convolution_param {
    num_output: 48
    pad: 2
    kernel_size: 5
    stride: 1
    weight_filler {
      type: "gaussian"
      std: 0.00011769241
    }
    bias_filler {
      type: "constant"
    }
  }
}
layer {
  name: "relu1"
  type: "ReLU"
  bottom: "conv1"
  top: "conv1"
}
layer {
  name: "pool1"
  type: "Pooling"
  bottom: "conv1"
  top: "pool1"
  pooling_param {
    pool: MAX
    kernel_size: 3
    stride: 2
  }
}
layer {
  name: "conv2"
  type: "Convolution"
  bottom: "pool1"
  top: "conv2"
  param {
    lr_mult: 1
    decay_mult: 0.001560719
  }
  param {
    lr_mult: 2
    decay_mult: 0
  }
  convolution_param {
    num_output: 96
    pad: 2
    kernel_size: 5
    stride: 1
    weight_filler {
      type: "gaussian"
      std: 0.00011769241
    }
    bias_filler {
      type: "constant"
    }
  }
}
layer {
  name: "relu2"
  type: "ReLU"
  bottom: "conv2"
  top: "conv2"
}
layer {
  name: "pool2"
  type: "Pooling"
  bottom: "conv2"
  top: "pool2"
  pooling_param {
    pool: MAX
    kernel_size: 3
    stride: 2
  }
}
layer {
  name: "ip1"
  type: "InnerProduct"
  bottom: "pool2"
  top: "ip1"
  param {
    lr_mult: 1
    decay_mult: 0.033449944
  }
  param {
    lr_mult: 2
    decay_mult: 0
  }
  inner_product_param {
    num_output: 96
    weight_filler {
      type: "gaussian"
      std: 0.001486948
    }
    bias_filler {
      type: "constant"
    }
  }
}
layer {
  name: "ip2"
  type: "InnerProduct"
  bottom: "ip1"
  top: "ip2"
  param {
    lr_mult: 1
    decay_mult: 0.11677349
  }
  param {
    lr_mult: 2
    decay_mult: 0
  }
  inner_product_param {
    num_output: 10
    weight_filler {
      type: "gaussian"
      std: 0.15104984
    }
    bias_filler {
      type: "constant"
    }
  }
}
layer {
  name: "loss"
  type: "SoftmaxWithLoss"
  bottom: "ip2"
  bottom: "label"
  top: "loss"
}
layer {
  name: "acc"
  type: "Accuracy"
  bottom: "ip2"
  bottom: "label"
  top: "acc"
}
I1113 06:26:38.756392 10174 layer_factory.hpp:77] Creating layer data
I1113 06:26:38.756700 10174 net.cpp:91] Creating Layer data
I1113 06:26:38.756712 10174 net.cpp:399] data -> data
I1113 06:26:38.756723 10174 net.cpp:399] data -> label
I1113 06:26:38.756737 10174 data_transformer.cpp:25] Loading mean file from: /mnt/data/cifar10_mean/mean.binaryproto
I1113 06:26:38.757382 10177 db_lmdb.cpp:38] Opened lmdb /mnt/data/cifar10_mean/cifar10_evenval_lmdb
I1113 06:26:38.757510 10174 data_layer.cpp:41] output data size: 512,3,32,32
I1113 06:26:38.768716 10174 net.cpp:141] Setting up data
I1113 06:26:38.768757 10174 net.cpp:148] Top shape: 512 3 32 32 (1572864)
I1113 06:26:38.768765 10174 net.cpp:148] Top shape: 512 (512)
I1113 06:26:38.768771 10174 net.cpp:156] Memory required for data: 6293504
I1113 06:26:38.768781 10174 layer_factory.hpp:77] Creating layer label_data_1_split
I1113 06:26:38.768797 10174 net.cpp:91] Creating Layer label_data_1_split
I1113 06:26:38.768803 10174 net.cpp:425] label_data_1_split <- label
I1113 06:26:38.768815 10174 net.cpp:399] label_data_1_split -> label_data_1_split_0
I1113 06:26:38.768828 10174 net.cpp:399] label_data_1_split -> label_data_1_split_1
I1113 06:26:38.768880 10174 net.cpp:141] Setting up label_data_1_split
I1113 06:26:38.768890 10174 net.cpp:148] Top shape: 512 (512)
I1113 06:26:38.768898 10174 net.cpp:148] Top shape: 512 (512)
I1113 06:26:38.768903 10174 net.cpp:156] Memory required for data: 6297600
I1113 06:26:38.768908 10174 layer_factory.hpp:77] Creating layer conv1
I1113 06:26:38.768926 10174 net.cpp:91] Creating Layer conv1
I1113 06:26:38.768932 10174 net.cpp:425] conv1 <- data
I1113 06:26:38.768940 10174 net.cpp:399] conv1 -> conv1
I1113 06:26:38.770552 10174 net.cpp:141] Setting up conv1
I1113 06:26:38.770575 10174 net.cpp:148] Top shape: 512 48 32 32 (25165824)
I1113 06:26:38.770581 10174 net.cpp:156] Memory required for data: 106960896
I1113 06:26:38.770596 10174 layer_factory.hpp:77] Creating layer relu1
I1113 06:26:38.770606 10174 net.cpp:91] Creating Layer relu1
I1113 06:26:38.770612 10174 net.cpp:425] relu1 <- conv1
I1113 06:26:38.770620 10174 net.cpp:386] relu1 -> conv1 (in-place)
I1113 06:26:38.770844 10174 net.cpp:141] Setting up relu1
I1113 06:26:38.770859 10174 net.cpp:148] Top shape: 512 48 32 32 (25165824)
I1113 06:26:38.770865 10174 net.cpp:156] Memory required for data: 207624192
I1113 06:26:38.770871 10174 layer_factory.hpp:77] Creating layer pool1
I1113 06:26:38.770884 10174 net.cpp:91] Creating Layer pool1
I1113 06:26:38.770889 10174 net.cpp:425] pool1 <- conv1
I1113 06:26:38.770897 10174 net.cpp:399] pool1 -> pool1
I1113 06:26:38.770944 10174 net.cpp:141] Setting up pool1
I1113 06:26:38.770954 10174 net.cpp:148] Top shape: 512 48 16 16 (6291456)
I1113 06:26:38.770959 10174 net.cpp:156] Memory required for data: 232790016
I1113 06:26:38.770965 10174 layer_factory.hpp:77] Creating layer conv2
I1113 06:26:38.770979 10174 net.cpp:91] Creating Layer conv2
I1113 06:26:38.770985 10174 net.cpp:425] conv2 <- pool1
I1113 06:26:38.770994 10174 net.cpp:399] conv2 -> conv2
I1113 06:26:38.775204 10174 net.cpp:141] Setting up conv2
I1113 06:26:38.775223 10174 net.cpp:148] Top shape: 512 96 16 16 (12582912)
I1113 06:26:38.775229 10174 net.cpp:156] Memory required for data: 283121664
I1113 06:26:38.775241 10174 layer_factory.hpp:77] Creating layer relu2
I1113 06:26:38.775251 10174 net.cpp:91] Creating Layer relu2
I1113 06:26:38.775257 10174 net.cpp:425] relu2 <- conv2
I1113 06:26:38.775265 10174 net.cpp:386] relu2 -> conv2 (in-place)
I1113 06:26:38.775517 10174 net.cpp:141] Setting up relu2
I1113 06:26:38.775534 10174 net.cpp:148] Top shape: 512 96 16 16 (12582912)
I1113 06:26:38.775539 10174 net.cpp:156] Memory required for data: 333453312
I1113 06:26:38.775557 10174 layer_factory.hpp:77] Creating layer pool2
I1113 06:26:38.775568 10174 net.cpp:91] Creating Layer pool2
I1113 06:26:38.775573 10174 net.cpp:425] pool2 <- conv2
I1113 06:26:38.775583 10174 net.cpp:399] pool2 -> pool2
I1113 06:26:38.775622 10174 net.cpp:141] Setting up pool2
I1113 06:26:38.775633 10174 net.cpp:148] Top shape: 512 96 8 8 (3145728)
I1113 06:26:38.775638 10174 net.cpp:156] Memory required for data: 346036224
I1113 06:26:38.775645 10174 layer_factory.hpp:77] Creating layer ip1
I1113 06:26:38.775657 10174 net.cpp:91] Creating Layer ip1
I1113 06:26:38.775663 10174 net.cpp:425] ip1 <- pool2
I1113 06:26:38.775671 10174 net.cpp:399] ip1 -> ip1
I1113 06:26:38.794410 10174 net.cpp:141] Setting up ip1
I1113 06:26:38.794443 10174 net.cpp:148] Top shape: 512 96 (49152)
I1113 06:26:38.794450 10174 net.cpp:156] Memory required for data: 346232832
I1113 06:26:38.794466 10174 layer_factory.hpp:77] Creating layer ip2
I1113 06:26:38.794479 10174 net.cpp:91] Creating Layer ip2
I1113 06:26:38.794486 10174 net.cpp:425] ip2 <- ip1
I1113 06:26:38.794497 10174 net.cpp:399] ip2 -> ip2
I1113 06:26:38.794638 10174 net.cpp:141] Setting up ip2
I1113 06:26:38.794651 10174 net.cpp:148] Top shape: 512 10 (5120)
I1113 06:26:38.794656 10174 net.cpp:156] Memory required for data: 346253312
I1113 06:26:38.794665 10174 layer_factory.hpp:77] Creating layer ip2_ip2_0_split
I1113 06:26:38.794674 10174 net.cpp:91] Creating Layer ip2_ip2_0_split
I1113 06:26:38.794680 10174 net.cpp:425] ip2_ip2_0_split <- ip2
I1113 06:26:38.794688 10174 net.cpp:399] ip2_ip2_0_split -> ip2_ip2_0_split_0
I1113 06:26:38.794697 10174 net.cpp:399] ip2_ip2_0_split -> ip2_ip2_0_split_1
I1113 06:26:38.794735 10174 net.cpp:141] Setting up ip2_ip2_0_split
I1113 06:26:38.794745 10174 net.cpp:148] Top shape: 512 10 (5120)
I1113 06:26:38.794751 10174 net.cpp:148] Top shape: 512 10 (5120)
I1113 06:26:38.794757 10174 net.cpp:156] Memory required for data: 346294272
I1113 06:26:38.794764 10174 layer_factory.hpp:77] Creating layer loss
I1113 06:26:38.794772 10174 net.cpp:91] Creating Layer loss
I1113 06:26:38.794777 10174 net.cpp:425] loss <- ip2_ip2_0_split_0
I1113 06:26:38.794785 10174 net.cpp:425] loss <- label_data_1_split_0
I1113 06:26:38.794792 10174 net.cpp:399] loss -> loss
…
